…
random_seed: 831486
average_loss: 20
iter_size: 1
type: "Adam"
I0911 16:23:56.442881  9828 solver.cpp:81] Creating training net from train_net file: train_3d_denseseg.prototxt
I0911 16:23:56.446992  9828 net.cpp:49] Initializing net from parameters: 
state {
  phase: TRAIN
}
layer {
  name: "data"
  type: "HDF5Data"
  top: "data"
  top: "label"
  include {
    phase: TRAIN
  }
  transform_param {
    crop_size_w: 64
    crop_size_h: 64
    crop_size_l: 64
  }
  hdf5_data_param {
    source: "./train_list.txt"
    batch_size: 4
    shuffle: true
  }
}
layer {
  name: "conv1a"
  type: "Convolution"
  bottom: "data"
  top: "conv1a"
  param {
    lr_mult: 1
    decay_mult: 1
  }
  param {
    lr_mult: 2
    decay_mult: 0
  }
  convolution_param {
    num_output: 32
    pad: 1
    pad: 1
    pad: 1
    kernel_size: 3
    kernel_size: 3
    kernel_size: 3
    stride: 1
    stride: 1
    stride: 1
    weight_filler {
      type: "msra"
    }
    bias_filler {
      type: "constant"
      value: -0.1
    }
    axis: 1
  }
}
layer {
  name: "bnorm1a"
  type: "BatchNorm"
  bottom: "conv1a"
  top: "bnorm1a"
  param {
    lr_mult: 0
    decay_mult: 0
  }
  param {
    lr_mult: 0
    decay_mult: 0
  }
  param {
    lr_mult: 0
    decay_mult: 0
  }
  batch_norm_param {
    use_global_stats: false
  }
}
layer {
  name: "scale1a"
  type: "Scale"
  bottom: "bnorm1a"
  top: "bnorm1a"
  scale_param {
    filler {
      value: 1
    }
    bias_term: true
    bias_filler {
      value: 0
    }
  }
}
layer {
  name: "relu1a"
  type: "ReLU"
  bottom: "bnorm1a"
  top: "bnorm1a"
}
layer {
  name: "conv1b"
  type: "Convolution"
  bottom: "bnorm1a"
  top: "conv1b"
  param {
    lr_mult: 1
    decay_mult: 1
  }
  convolution_param {
    num_output: 32
    bias_term: false
    pad: 1
    pad: 1
    pad: 1
    kernel_size: 3
    kernel_size: 3
    kernel_size: 3
    stride: 1
    stride: 1
    stride: 1
    weight_filler {
      type: "msra"
    }
    bias_filler {
      type: "constant"
    }
    axis: 1
  }
}
layer {
  name: "bnorm1b"
  type: "BatchNorm"
  bottom: "conv1b"
  top: "bnorm1b"
  param {
    lr_mult: 0
    decay_mult: 0
  }
  param {
    lr_mult: 0
    decay_mult: 0
  }
  param {
    lr_mult: 0
    decay_mult: 0
  }
  batch_norm_param {
    use_global_stats: false
  }
}
layer {
  name: "scale1b"
  type: "Scale"
  bottom: "bnorm1b"
  top: "bnorm1b"
  scale_param {
    filler {
      value: 1
    }
    bias_term: true
    bias_filler {
      value: 0
    }
  }
}
layer {
  name: "relu1b"
  type: "ReLU"
  bottom: "bnorm1b"
  top: "bnorm1b"
}
layer {
  name: "conv1c"
  type: "Convolution"
  bottom: "bnorm1b"
  top: "conv1c"
  param {
    lr_mult: 1
    decay_mult: 1
  }
  convolution_param {
    num_output: 32
    bias_term: false
    pad: 1
    pad: 1
    pad: 1
    kernel_size: 3
    kernel_size: 3
    kernel_size: 3
    stride: 1
    stride: 1
    stride: 1
    weight_filler {
      type: "msra"
    }
    bias_filler {
      type: "constant"
    }
    axis: 1
  }
}
layer {
  name: "bnorm1c"
  type: "BatchNorm"
  bottom: "conv1c"
  top: "bnorm1c"
  param {
    lr_mult: 0
    decay_mult: 0
  }
  param {
    lr_mult: 0
    decay_mult: 0
  }
  param {
    lr_mult: 0
    decay_mult: 0
  }
  batch_norm_param {
    use_global_stats: false
  }
}
layer {
  name: "scale1c"
  type: "Scale"
  bottom: "bnorm1c"
  top: "bnorm1c"
  scale_param {
    filler {
      value: 1
    }
    bias_term: true
    bias_filler {
      value: 0
    }
  }
}
layer {
  name: "relu1c"
  type: "ReLU"
  bottom: "bnorm1c"
  top: "bnorm1c"
}
layer {
  name: "Conv_down_1"
  type: "Convolution"
  bottom: "bnorm1c"
  top: "Conv_down_1"
  param {
    lr_mult: 1
    decay_mult: 1
  }
  convolution_param {
    num_output: 32
    bias_term: false
    pad: 0
    pad: 0
    pad: 0
    kernel_size: 2
    kernel_size: 2
    kernel_size: 2
    stride: 2
    weight_filler {
      type: "msra"
    }
    bias_filler {
      type: "constant"
    }
    axis: 1
  }
}
layer {
  name: "BatchNorm1"
  type: "BatchNorm"
  bottom: "Conv_down_1"
  top: "BatchNorm1"
  param {
    lr_mult: 0
    decay_mult: 0
  }
  param {
    lr_mult: 0
    decay_mult: 0
  }
  param {
    lr_mult: 0
    decay_mult: 0
  }
  batch_norm_param {
    use_global_stats: false
  }
}
layer {
  name: "Scale1"
  type: "Scale"
  bottom: "BatchNorm1"
  top: "BatchNorm1"
  scale_param {
    filler {
      value: 1
    }
    bias_term: true
    bias_filler {
      value: 0
    }
  }
}
layer {
  name: "ReLU1"
  type: "ReLU"
  bottom: "BatchNorm1"
  top: "BatchNorm1"
}
layer {
  name: "Convolution1"
  type: "Convolution"
  bottom: "BatchNorm1"
  top: "Convolution1"
  param {
    lr_mult: 1
    decay_mult: 1
  }
  convolution_param {
    num_output: 64
    bias_term: false
    pad: 0
    pad: 0
    pad: 0
    kernel_size: 1
    kernel_size: 1
    kernel_size: 1
    stride: 1
    stride: 1
    stride: 1
    weight_filler {
      type: "msra"
    }
    bias_filler {
      type: "constant"
    }
    axis: 1
  }
}
layer {
  name: "BatchNorm2"
  type: "BatchNorm"
  bottom: "Convolution1"
  top: "BatchNorm2"
  param {
    lr_mult: 0
    decay_mult: 0
  }
  param {
    lr_mult: 0
    decay_mult: 0
  }
  param {
    lr_mult: 0
    decay_mult: 0
  }
  batch_norm_param {
    use_global_stats: false
  }
}
layer {
  name: "Scale2"
  type: "Scale"
  bottom: "BatchNorm2"
  top: "BatchNorm2"
  scale_param {
    filler {
      value: 1
    }
    bias_term: true
    bias_filler {
      value: 0
    }
  }
}
layer {
  name: "ReLU2"
  type: "ReLU"
  bottom: "BatchNorm2"
  top: "BatchNorm2"
}
layer {
  name: "Convolution2"
  type: "Convolution"
  bottom: "BatchNorm2"
  top: "Convolution2"
  param {
    lr_mult: 1
    decay_mult: 1
  }
  convolution_param {
    num_output: 16
    bias_term: false
    pad: 1
    pad: 1
    pad: 1
    kernel_size: 3
    kernel_size: 3
    kernel_size: 3
    stride: 1
    stride: 1
    stride: 1
    weight_filler {
      type: "msra"
    }
    bias_filler {
      type: "constant"
    }
    axis: 1
  }
}
layer {
  name: "Dropout1"
  type: "Dropout"
  bottom: "Convolution2"
  top: "Dropout1"
  dropout_param {
    dropout_ratio: 0.2
  }
}
layer {
  name: "Concat_1"
  type: "Concat"
  bottom: "Conv_down_1"
  bottom: "Dropout1"
  top: "Concat_1"
  concat_param {
    axis: 1
  }
}
layer {
  name: "BatchNorm3"
  type: "BatchNorm"
  bottom: "Concat_1"
  top: "BatchNorm3"
  param {
    lr_mult: 0
    decay_mult: 0
  }
  param {
    lr_mult: 0
    decay_mult: 0
  }
  param {
    lr_mult: 0
    decay_mult: 0
  }
  batch_norm_param {
    use_global_stats: false
  }
}
layer {
  name: "Scale3"
  type: "Scale"
  bottom: "BatchNorm3"
  top: "BatchNorm3"
  scale_param {
    filler {
      value: 1
    }
    bias_term: true
    bias_filler {
      value: 0
    }
  }
}
layer {
  name: "ReLU3"
  type: "ReLU"
  bottom: "BatchNorm3"
  top: "BatchNorm3"
}
layer {
  name: "Convolution3"
  type: "Convolution"
  bottom: "BatchNorm3"
  top: "Convolution3"
  param {
    lr_mult: 1
    decay_mult: 1
  }
  convolution_param {
    num_output: 64
    bias_term: false
    pad: 0
    pad: 0
    pad: 0
    kernel_size: 1
    kernel_size: 1
    kernel_size: 1
    stride: 1
    stride: 1
    stride: 1
    weight_filler {
      type: "msra"
    }
    bias_filler {
      type: "constant"
    }
    axis: 1
  }
}
layer {
  name: "BatchNorm4"
  type: "BatchNorm"
  bottom: "Convolution3"
  top: "BatchNorm4"
  param {
    lr_mult: 0
    decay_mult: 0
  }
  param {
    lr_mult: 0
    decay_mult: 0
  }
  param {
    lr_mult: 0
    decay_mult: 0
  }
  batch_norm_param {
    use_global_stats: false
  }
}
layer {
  name: "Scale4"
  type: "Scale"
  bottom: "BatchNorm4"
  top: "BatchNorm4"
  scale_param {
    filler {
      value: 1
    }
    bias_term: true
    bias_filler {
      value: 0
    }
  }
}
layer {
  name: "ReLU4"
  type: "ReLU"
  bottom: "BatchNorm4"
  top: "BatchNorm4"
}
layer {
  name: "Convolution4"
  type: "Convolution"
  bottom: "BatchNorm4"
  top: "Convolution4"
  param {
    lr_mult: 1
    decay_mult: 1
  }
  convolution_param {
    num_output: 16
    bias_term: false
    pad: 1
    pad: 1
    pad: 1
    kernel_size: 3
    kernel_size: 3
    kernel_size: 3
    stride: 1
    stride: 1
    stride: 1
    weight_filler {
      type: "msra"
    }
    bias_filler {
      type: "constant"
    }
    axis: 1
  }
}
layer {
  name: "Dropout2"
  type: "Dropout"
  bottom: "Convolution4"
  top: "Dropout2"
  dropout_param {
    dropout_ratio: 0.2
  }
}
layer {
  name: "Concat_2"
  type: "Concat"
  bottom: "Concat_1"
  bottom: "Dropout2"
  top: "Concat_2"
  concat_param {
    axis: 1
  }
}
layer {
  name: "BatchNorm5"
  type: "BatchNorm"
  bottom: "Concat_2"
  top: "BatchNorm5"
  param {
    lr_mult: 0
    decay_mult: 0
  }
  param {
    lr_mult: 0
    decay_mult: 0
  }
  param {
    lr_mult: 0
    decay_mult: 0
  }
  batch_norm_param {
    use_global_stats: false
  }
}
layer {
  name: "Scale5"
  type: "Scale"
  bottom: "BatchNorm5"
  top: "BatchNorm5"
  scale_param {
    filler {
      value: 1
    }
    bias_term: true
    bias_filler {
      value: 0
    }
  }
}
layer {
  name: "ReLU5"
  type: "ReLU"
  bottom: "BatchNorm5"
  top: "BatchNorm5"
}
layer {
  name: "Convolution5"
  type: "Convolution"
  bottom: "BatchNorm5"
  top: "Convolution5"
  param {
    lr_mult: 1
    decay_mult: 1
  }
  convolution_param {
    num_output: 64
    bias_term: false
    pad: 0
    pad: 0
    pad: 0
    kernel_size: 1
    kernel_size: 1
    kernel_size: 1
    stride: 1
    stride: 1
    stride: 1
    weight_filler {
      type: "msra"
    }
    bias_filler {
      type: "constant"
    }
    axis: 1
  }
}
layer {
  name: "BatchNorm6"
  type: "BatchNorm"
  bottom: "Convolution5"
  top: "BatchNorm6"
  param {
    lr_mult: 0
    decay_mult: 0
  }
  param {
    lr_mult: 0
    decay_mult: 0
  }
  param {
    lr_mult: 0
    decay_mult: 0
  }
  batch_norm_param {
    use_global_stats: false
  }
}
layer {
  name: "Scale6"
  type: "Scale"
  bottom: "BatchNorm6"
  top: "BatchNorm6"
  scale_param {
    filler {
      value: 1
    }
    bias_term: true
    bias_filler {
      value: 0
    }
  }
}
layer {
  name: "ReLU6"
  type: "ReLU"
  bottom: "BatchNorm6"
  top: "BatchNorm6"
}
layer {
  name: "Convolution6"
  type: "Convolution"
  bottom: "BatchNorm6"
  top: "Convolution6"
  param {
    lr_mult: 1
    decay_mult: 1
  }
  convolution_param {
    num_output: 16
    bias_term: false
    pad: 1
    pad: 1
    pad: 1
    kernel_size: 3
    kernel_size: 3
    kernel_size: 3
    stride: 1
    stride: 1
    stride: 1
    weight_filler {
      type: "msra"
    }
    bias_filler {
      type: "constant"
    }
    axis: 1
  }
}
layer {
  name: "Dropout3"
  type: "Dropout"
  bottom: "Convolution6"
  top: "Dropout3"
  dropout_param {
    dropout_ratio: 0.2
  }
}
layer {
  name: "Concat_3"
  type: "Concat"
  bottom: "Concat_2"
  bottom: "Dropout3"
  top: "Concat_3"
  concat_param {
    axis: 1
  }
}
layer {
  name: "BatchNorm7"
  type: "BatchNorm"
  bottom: "Concat_3"
  top: "BatchNorm7"
  param {
    lr_mult: 0
    decay_mult: 0
  }
  param {
    lr_mult: 0
    decay_mult: 0
  }
  param {
    lr_mult: 0
    decay_mult: 0
  }
  batch_norm_param {
    use_global_stats: false
  }
}
layer {
  name: "Scale7"
  type: "Scale"
  bottom: "BatchNorm7"
  top: "BatchNorm7"
  scale_param {
    filler {
      value: 1
    }
    bias_term: true
    bias_filler {
      value: 0
    }
  }
}
layer {
  name: "ReLU7"
  type: "ReLU"
  bottom: "BatchNorm7"
  top: "BatchNorm7"
}
layer {
  name: "Convolution7"
  type: "Convolution"
  bottom: "BatchNorm7"
  top: "Convolution7"
  param {
    lr_mult: 1
    decay_mult: 1
  }
  convolution_param {
    num_output: 64
    bias_term: false
    pad: 0
    pad: 0
    pad: 0
    kernel_size: 1
    kernel_size: 1
    kernel_size: 1
    stride: 1
    stride: 1
    stride: 1
    weight_filler {
      type: "msra"
    }
    bias_filler {
      type: "constant"
    }
    axis: 1
  }
}
layer {
  name: "BatchNorm8"
  type: "BatchNorm"
  bottom: "Convolution7"
  top: "BatchNorm8"
  param {
    lr_mult: 0
    decay_mult: 0
  }
  param {
    lr_mult: 0
    decay_mult: 0
  }
  param {
    lr_mult: 0
    decay_mult: 0
  }
  batch_norm_param {
    use_global_stats: false
  }
}
layer {
  name: "Scale8"
  type: "Scale"
  bottom: "BatchNorm8"
  top: "BatchNorm8"
  scale_param {
    filler {
      value: 1
    }
    bias_term: true
    bias_filler {
      value: 0
    }
  }
}
layer {
  name: "ReLU8"
  type: "ReLU"
  bottom: "BatchNorm8"
  top: "BatchNorm8"
}
layer {
  name: "Convolution8"
  type: "Convolution"
  bottom: "BatchNorm8"
  top: "Convolution8"
  param {
    lr_mult: 1
    decay_mult: 1
  }
  convolution_param {
    num_output: 16
    bias_term: false
    pad: 1
    pad: 1
    pad: 1
    kernel_size: 3
    kernel_size: 3
    kernel_size: 3
    stride: 1
    stride: 1
    stride: 1
    weight_filler {
      type: "msra"
    }
    bias_filler {
      type: "constant"
    }
    axis: 1
  }
}
layer {
  name: "Dropout4"
  type: "Dropout"
  bottom: "Convolution8"
  top: "Dropout4"
  dropout_param {
    dropout_ratio: 0.2
  }
}
layer {
  name: "Concat_4"
  type: "Concat"
  bottom: "Concat_3"
  bottom: "Dropout4"
  top: "Concat_4"
  concat_param {
    axis: 1
  }
}
layer {
  name: "Deconvolution_5"
  type: "Deconvolution"
  bottom: "Concat_4"
  top: "Deconvolution_5"
  param {
    lr_mult: 0.1
    decay_mult: 1
  }
  convolution_param {
    num_output: 4
    bias_term: false
    pad: 1
    pad: 1
    pad: 1
    kernel_size: 4
    kernel_size: 4
    kernel_size: 4
    group: 4
    stride: 2
    stride: 2
    stride: 2
    weight_filler {
      type: "bilinear_3D"
    }
  }
}
layer {
  name: "BatchNorm9"
  type: "BatchNorm"
  bottom: "Concat_4"
  top: "BatchNorm9"
  param {
    lr_mult: 0
    decay_mult: 0
  }
  param {
    lr_mult: 0
    decay_mult: 0
  }
  param {
    lr_mult: 0
    decay_mult: 0
  }
  batch_norm_param {
    use_global_stats: false
  }
}
layer {
  name: "Scale9"
  type: "Scale"
  bottom: "BatchNorm9"
  top: "BatchNorm9"
  scale_param {
    filler {
      value: 1
    }
    bias_term: true
    bias_filler {
      value: 0
    }
  }
}
layer {
  name: "ReLU9"
  type: "ReLU"
  bottom: "BatchNorm9"
  top: "BatchNorm9"
}
layer {
  name: "Convolution9"
  type: "Convolution"
  bottom: "BatchNorm9"
  top: "Convolution9"
  param {
    lr_mult: 1
    decay_mult: 1
  }
  convolution_param {
    num_output: 48
    bias_term: false
    pad: 0
    pad: 0
    pad: 0
    kernel_size: 1
    kernel_size: 1
    kernel_size: 1
    stride: 1
    stride: 1
    stride: 1
    weight_filler {
      type: "msra"
    }
    bias_filler {
      type: "constant"
    }
    axis: 1
  }
}
layer {
  name: "BatchNorm10"
  type: "BatchNorm"
  bottom: "Convolution9"
  top: "BatchNorm10"
  param {
    lr_mult: 0
    decay_mult: 0
  }
  param {
    lr_mult: 0
    decay_mult: 0
  }
  param {
    lr_mult: 0
    decay_mult: 0
  }
  batch_norm_param {
    use_global_stats: false
  }
}
layer {
  name: "Scale10"
  type: "Scale"
  bottom: "BatchNorm10"
  top: "BatchNorm10"
  scale_param {
    filler {
      value: 1
    }
    bias_term: true
    bias_filler {
      value: 0
    }
  }
}
layer {
  name: "ReLU10"
  type: "ReLU"
  bottom: "BatchNorm10"
  top: "BatchNorm10"
}
layer {
  name: "Conv_down_5"
  type: "Convolution"
  bottom: "BatchNorm10"
  top: "Conv_down_5"
  param {
    lr_mult: 1
    decay_mult: 1
  }
  convolution_param {
    num_output: 48
    bias_term: false
    pad: 0
    pad: 0
    pad: 0
    kernel_size: 2
    kernel_size: 2
    kernel_size: 2
    stride: 2
    weight_filler {
      type: "msra"
    }
    bias_filler {
      type: "constant"
    }
    axis: 1
  }
}
layer {
  name: "BatchNorm11"
  type: "BatchNorm"
  bottom: "Conv_down_5"
  top: "BatchNorm11"
  param {
    lr_mult: 0
    decay_mult: 0
  }
  param {
    lr_mult: 0
    decay_mult: 0
  }
  param {
    lr_mult: 0
    decay_mult: 0
  }
  batch_norm_param {
    use_global_stats: false
  }
}
layer {
  name: "Scale11"
  type: "Scale"
  bottom: "BatchNorm11"
  top: "BatchNorm11"
  scale_param {
    filler {
      value: 1
    }
    bias_term: true
    bias_filler {
      value: 0
    }
  }
}
layer {
  name: "ReLU11"
  type: "ReLU"
  bottom: "BatchNorm11"
  top: "BatchNorm11"
}
layer {
  name: "Convolution10"
  type: "Convolution"
  bottom: "BatchNorm11"
  top: "Convolution10"
  param {
    lr_mult: 1
    decay_mult: 1
  }
  convolution_param {
    num_output: 64
    bias_term: false
    pad: 0
    pad: 0
    pad: 0
    kernel_size: 1
    kernel_size: 1
    kernel_size: 1
    stride: 1
    stride: 1
    stride: 1
    weight_filler {
      type: "msra"
    }
    bias_filler {
      type: "constant"
    }
    axis: 1
  }
}
layer {
  name: "BatchNorm12"
  type: "BatchNorm"
  bottom: "Convolution10"
  top: "BatchNorm12"
  param {
    lr_mult: 0
    decay_mult: 0
  }
  param {
    lr_mult: 0
    decay_mult: 0
  }
  param {
    lr_mult: 0
    decay_mult: 0
  }
  batch_norm_param {
    use_global_stats: false
  }
}
layer {
  name: "Scale12"
  type: "Scale"
  bottom: "BatchNorm12"
  top: "BatchNorm12"
  scale_param {
    filler {
      value: 1
    }
    bias_term: true
    bias_filler {
      value: 0
    }
  }
}
layer {
  name: "ReLU12"
  type: "ReLU"
  bottom: "BatchNorm12"
  top: "BatchNorm12"
}
layer {
  name: "Convolution11"
  type: "Convolution"
  bottom: "BatchNorm12"
  top: "Convolution11"
  param {
    lr_mult: 1
    decay_mult: 1
  }
  convolution_param {
    num_output: 16
    bias_term: false
    pad: 1
    pad: 1
    pad: 1
    kernel_size: 3
    kernel_size: 3
    kernel_size: 3
    stride: 1
    stride: 1
    stride: 1
    weight_filler {
      type: "msra"
    }
    bias_filler {
      type: "constant"
    }
    axis: 1
  }
}
layer {
  name: "Dropout5"
  type: "Dropout"
  bottom: "Convolution11"
  top: "Dropout5"
  dropout_param {
    dropout_ratio: 0.2
  }
}
layer {
  name: "Concat_6"
  type: "Concat"
  bottom: "Conv_down_5"
  bottom: "Dropout5"
  top: "Concat_6"
  concat_param {
    axis: 1
  }
}
layer {
  name: "BatchNorm13"
  type: "BatchNorm"
  bottom: "Concat_6"
  top: "BatchNorm13"
  param {
    lr_mult: 0
    decay_mult: 0
  }
  param {
    lr_mult: 0
    decay_mult: 0
  }
  param {
    lr_mult: 0
    decay_mult: 0
  }
  batch_norm_param {
    use_global_stats: false
  }
}
layer {
  name: "Scale13"
  type: "Scale"
  bottom: "BatchNorm13"
  top: "BatchNorm13"
  scale_param {
    filler {
      value: 1
    }
    bias_term: true
    bias_filler {
      value: 0
    }
  }
}
layer {
  name: "ReLU13"
  type: "ReLU"
  bottom: "BatchNorm13"
  top: "BatchNorm13"
}
layer {
  name: "Convolution12"
  type: "Convolution"
  bottom: "BatchNorm13"
  top: "Convolution12"
  param {
    lr_mult: 1
    decay_mult: 1
  }
  convolution_param {
    num_output: 64
    bias_term: false
    pad: 0
    pad: 0
    pad: 0
    kernel_size: 1
    kernel_size: 1
    kernel_size: 1
    stride: 1
    stride: 1
    stride: 1
    weight_filler {
      type: "msra"
    }
    bias_filler {
      type: "constant"
    }
    axis: 1
  }
}
layer {
  name: "BatchNorm14"
  type: "BatchNorm"
  bottom: "Convolution12"
  top: "BatchNorm14"
  param {
    lr_mult: 0
    decay_mult: 0
  }
  param {
    lr_mult: 0
    decay_mult: 0
  }
  param {
    lr_mult: 0
    decay_mult: 0
  }
  batch_norm_param {
    use_global_stats: false
  }
}
layer {
  name: "Scale14"
  type: "Scale"
  bottom: "BatchNorm14"
  top: "BatchNorm14"
  scale_param {
    filler {
      value: 1
    }
    bias_term: true
    bias_filler {
      value: 0
    }
  }
}
layer {
  name: "ReLU14"
  type: "ReLU"
  bottom: "BatchNorm14"
  top: "BatchNorm14"
}
layer {
  name: "Convolution13"
  type: "Convolution"
  bottom: "BatchNorm14"
  top: "Convolution13"
  param {
    lr_mult: 1
    decay_mult: 1
  }
  convolution_param {
    num_output: 16
    bias_term: false
    pad: 1
    pad: 1
    pad: 1
    kernel_size: 3
    kernel_size: 3
    kernel_size: 3
    stride: 1
    stride: 1
    stride: 1
    weight_filler {
      type: "msra"
    }
    bias_filler {
      type: "constant"
    }
    axis: 1
  }
}
layer {
  name: "Dropout6"
  type: "Dropout"
  bottom: "Convolution13"
  top: "Dropout6"
  dropout_param {
    dropout_ratio: 0.2
  }
}
layer {
  name: "Concat_7"
  type: "Concat"
  bottom: "Concat_6"
  bottom: "Dropout6"
  top: "Concat_7"
  concat_param {
    axis: 1
  }
}
layer {
  name: "BatchNorm15"
  type: "BatchNorm"
  bottom: "Concat_7"
  top: "BatchNorm15"
  param {
    lr_mult: 0
    decay_mult: 0
  }
  param {
    lr_mult: 0
    decay_mult: 0
  }
  param {
    lr_mult: 0
    decay_mult: 0
  }
  batch_norm_param {
    use_global_stats: false
  }
}
layer {
  name: "Scale15"
  type: "Scale"
  bottom: "BatchNorm15"
  top: "BatchNorm15"
  scale_param {
    filler {
      value: 1
    }
    bias_term: true
    bias_filler {
      value: 0
    }
  }
}
layer {
  name: "ReLU15"
  type: "ReLU"
  bottom: "BatchNorm15"
  top: "BatchNorm15"
}
layer {
  name: "Convolution14"
  type: "Convolution"
  bottom: "BatchNorm15"
  top: "Convolution14"
  param {
    lr_mult: 1
    decay_mult: 1
  }
  convolution_param {
    num_output: 64
    bias_term: false
    pad: 0
    pad: 0
    pad: 0
    kernel_size: 1
    kernel_size: 1
    kernel_size: 1
    stride: 1
    stride: 1
    stride: 1
    weight_filler {
      type: "msra"
    }
    bias_filler {
      type: "constant"
    }
    axis: 1
  }
}
layer {
  name: "BatchNorm16"
  type: "BatchNorm"
  bottom: "Convolution14"
  top: "BatchNorm16"
  param {
    lr_mult: 0
    decay_mult: 0
  }
  param {
    lr_mult: 0
    decay_mult: 0
  }
  param {
    lr_mult: 0
    decay_mult: 0
  }
  batch_norm_param {
    use_global_stats: false
  }
}
layer {
  name: "Scale16"
  type: "Scale"
  bottom: "BatchNorm16"
  top: "BatchNorm16"
  scale_param {
    filler {
      value: 1
    }
    bias_term: true
    bias_filler {
      value: 0
    }
  }
}
layer {
  name: "ReLU16"
  type: "ReLU"
  bottom: "BatchNorm16"
  top: "BatchNorm16"
}
layer {
  name: "Convolution15"
  type: "Convolution"
  bottom: "BatchNorm16"
  top: "Convolution15"
  param {
    lr_mult: 1
    decay_mult: 1
  }
  convolution_param {
    num_output: 16
    bias_term: false
    pad: 1
    pad: 1
    pad: 1
    kernel_size: 3
    kernel_size: 3
    kernel_size: 3
    stride: 1
    stride: 1
    stride: 1
    weight_filler {
      type: "msra"
    }
    bias_filler {
      type: "constant"
    }
    axis: 1
  }
}
layer {
  name: "Dropout7"
  type: "Dropout"
  bottom: "Convolution15"
  top: "Dropout7"
  dropout_param {
    dropout_ratio: 0.2
  }
}
layer {
  name: "Concat_8"
  type: "Concat"
  bottom: "Concat_7"
  bottom: "Dropout7"
  top: "Concat_8"
  concat_param {
    axis: 1
  }
}
layer {
  name: "BatchNorm17"
  type: "BatchNorm"
  bottom: "Concat_8"
  top: "BatchNorm17"
  param {
    lr_mult: 0
    decay_mult: 0
  }
  param {
    lr_mult: 0
    decay_mult: 0
  }
  param {
    lr_mult: 0
    decay_mult: 0
  }
  batch_norm_param {
    use_global_stats: false
  }
}
layer {
  name: "Scale17"
  type: "Scale"
  bottom: "BatchNorm17"
  top: "BatchNorm17"
  scale_param {
    filler {
      value: 1
    }
    bias_term: true
    bias_filler {
      value: 0
    }
  }
}
layer {
  name: "ReLU17"
  type: "ReLU"
  bottom: "BatchNorm17"
  top: "BatchNorm17"
}
layer {
  name: "Convolution16"
  type: "Convolution"
  bottom: "BatchNorm17"
  top: "Convolution16"
  param {
    lr_mult: 1
    decay_mult: 1
  }
  convolution_param {
    num_output: 64
    bias_term: false
    pad: 0
    pad: 0
    pad: 0
    kernel_size: 1
    kernel_size: 1
    kernel_size: 1
    stride: 1
    stride: 1
    stride: 1
    weight_filler {
      type: "msra"
    }
    bias_filler {
      type: "constant"
    }
    axis: 1
  }
}
layer {
  name: "BatchNorm18"
  type: "BatchNorm"
  bottom: "Convolution16"
  top: "BatchNorm18"
  param {
    lr_mult: 0
    decay_mult: 0
  }
  param {
    lr_mult: 0
    decay_mult: 0
  }
  param {
    lr_mult: 0
    decay_mult: 0
  }
  batch_norm_param {
    use_global_stats: false
  }
}
layer {
  name: "Scale18"
  type: "Scale"
  bottom: "BatchNorm18"
  top: "BatchNorm18"
  scale_param {
    filler {
      value: 1
    }
    bias_term: true
    bias_filler {
      value: 0
    }
  }
}
layer {
  name: "ReLU18"
  type: "ReLU"
  bottom: "BatchNorm18"
  top: "BatchNorm18"
}
layer {
  name: "Convolution17"
  type: "Convolution"
  bottom: "BatchNorm18"
  top: "Convolution17"
  param {
    lr_mult: 1
    decay_mult: 1
  }
  convolution_param {
    num_output: 16
    bias_term: false
    pad: 1
    pad: 1
    pad: 1
    kernel_size: 3
    kernel_size: 3
    kernel_size: 3
    stride: 1
    stride: 1
    stride: 1
    weight_filler {
      type: "msra"
    }
    bias_filler {
      type: "constant"
    }
    axis: 1
  }
}
layer {
  name: "Dropout8"
  type: "Dropout"
  bottom: "Convolution17"
  top: "Dropout8"
  dropout_param {
    dropout_ratio: 0.2
  }
}
layer {
  name: "Concat_9"
  type: "Concat"
  bottom: "Concat_8"
  bottom: "Dropout8"
  top: "Concat_9"
  concat_param {
    axis: 1
  }
}
layer {
  name: "Deconvolution_10"
  type: "Deconvolution"
  bottom: "Concat_9"
  top: "Deconvolution_10"
  param {
    lr_mult: 0.1
    decay_mult: 1
  }
  convolution_param {
    num_output: 4
    bias_term: false
    pad: 1
    pad: 1
    pad: 1
    kernel_size: 6
    kernel_size: 6
    kernel_size: 6
    group: 4
    stride: 4
    stride: 4
    stride: 4
    weight_filler {
      type: "bilinear_3D"
    }
  }
}
layer {
  name: "BatchNorm19"
  type: "BatchNorm"
  bottom: "Concat_9"
  top: "BatchNorm19"
  param {
    lr_mult: 0
    decay_mult: 0
  }
  param {
    lr_mult: 0
    decay_mult: 0
  }
  param {
    lr_mult: 0
    decay_mult: 0
  }
  batch_norm_param {
    use_global_stats: false
  }
}
layer {
  name: "Scale19"
  type: "Scale"
  bottom: "BatchNorm19"
  top: "BatchNorm19"
  scale_param {
    filler {
      value: 1
    }
    bias_term: true
    bias_filler {
      value: 0
    }
  }
}
layer {
  name: "ReLU19"
  type: "ReLU"
  bottom: "BatchNorm19"
  top: "BatchNorm19"
}
layer {
  name: "Convolution18"
  type: "Convolution"
  bottom: "BatchNorm19"
  top: "Convolution18"
  param {
    lr_mult: 1
    decay_mult: 1
  }
  convolution_param {
    num_output: 56
    bias_term: false
    pad: 0
    pad: 0
    pad: 0
    kernel_size: 1
    kernel_size: 1
    kernel_size: 1
    stride: 1
    stride: 1
    stride: 1
    weight_filler {
      type: "msra"
    }
    bias_filler {
      type: "constant"
    }
    axis: 1
  }
}
layer {
  name: "BatchNorm20"
  type: "BatchNorm"
  bottom: "Convolution18"
  top: "BatchNorm20"
  param {
    lr_mult: 0
    decay_mult: 0
  }
  param {
    lr_mult: 0
    decay_mult: 0
  }
  param {
    lr_mult: 0
    decay_mult: 0
  }
  batch_norm_param {
    use_global_stats: false
  }
}
layer {
  name: "Scale20"
  type: "Scale"
  bottom: "BatchNorm20"
  top: "BatchNorm20"
  scale_param {
    filler {
      value: 1
    }
    bias_term: true
    bias_filler {
      value: 0
    }
  }
}
layer {
  name: "ReLU20"
  type: "ReLU"
  bottom: "BatchNorm20"
  top: "BatchNorm20"
}
layer {
  name: "Conv_down_10"
  type: "Convolution"
  bottom: "BatchNorm20"
  top: "Conv_down_10"
  param {
    lr_mult: 1
    decay_mult: 1
  }
  convolution_param {
    num_output: 56
    bias_term: false
    pad: 0
    pad: 0
    pad: 0
    kernel_size: 2
    kernel_size: 2
    kernel_size: 2
    stride: 2
    weight_filler {
      type: "msra"
    }
    bias_filler {
      type: "constant"
    }
    axis: 1
  }
}
layer {
  name: "BatchNorm21"
  type: "BatchNorm"
  bottom: "Conv_down_10"
  top: "BatchNorm21"
  param {
    lr_mult: 0
    decay_mult: 0
  }
  param {
    lr_mult: 0
    decay_mult: 0
  }
  param {
    lr_mult: 0
    decay_mult: 0
  }
  batch_norm_param {
    use_global_stats: false
  }
}
layer {
  name: "Scale21"
  type: "Scale"
  bottom: "BatchNorm21"
  top: "BatchNorm21"
  scale_param {
    filler {
      value: 1
    }
    bias_term: true
    bias_filler {
      value: 0
    }
  }
}
layer {
  name: "ReLU21"
  type: "ReLU"
  bottom: "BatchNorm21"
  top: "BatchNorm21"
}
layer {
  name: "Convolution19"
  type: "Convolution"
  bottom: "BatchNorm21"
  top: "Convolution19"
  param {
    lr_mult: 1
    decay_mult: 1
  }
  convolution_param {
    num_output: 64
    bias_term: false
    pad: 0
    pad: 0
    pad: 0
    kernel_size: 1
    kernel_size: 1
    kernel_size: 1
    stride: 1
    stride: 1
    stride: 1
    weight_filler {
      type: "msra"
    }
    bias_filler {
      type: "constant"
    }
    axis: 1
  }
}
layer {
  name: "BatchNorm22"
  type: "BatchNorm"
  bottom: "Convolution19"
  top: "BatchNorm22"
  param {
    lr_mult: 0
    decay_mult: 0
  }
  param {
    lr_mult: 0
    decay_mult: 0
  }
  param {
    lr_mult: 0
    decay_mult: 0
  }
  batch_norm_param {
    use_global_stats: false
  }
}
layer {
  name: "Scale22"
  type: "Scale"
  bottom: "BatchNorm22"
  top: "BatchNorm22"
  scale_param {
    filler {
      value: 1
    }
    bias_term: true
    bias_filler {
      value: 0
    }
  }
}
layer {
  name: "ReLU22"
  type: "ReLU"
  bottom: "BatchNorm22"
  top: "BatchNorm22"
}
layer {
  name: "Convolution20"
  type: "Convolution"
  bottom: "BatchNorm22"
  top: "Convolution20"
  param {
    lr_mult: 1
    decay_mult: 1
  }
  convolution_param {
    num_output: 16
    bias_term: false
    pad: 1
    pad: 1
    pad: 1
    kernel_size: 3
    kernel_size: 3
    kernel_size: 3
    stride: 1
    stride: 1
    stride: 1
    weight_filler {
      type: "msra"
    }
    bias_filler {
      type: "constant"
    }
    axis: 1
  }
}
layer {
  name: "Dropout9"
  type: "Dropout"
  bottom: "Convolution20"
  top: "Dropout9"
  dropout_param {
    dropout_ratio: 0.2
  }
}
layer {
  name: "Concat_11"
  type: "Concat"
  bottom: "Conv_down_10"
  bottom: "Dropout9"
  top: "Concat_11"
  concat_param {
    axis: 1
  }
}
layer {
  name: "BatchNorm23"
  type: "BatchNorm"
  bottom: "Concat_11"
  top: "BatchNorm23"
  param {
    lr_mult: 0
    decay_mult: 0
  }
  param {
    lr_mult: 0
    decay_mult: 0
  }
  param {
    lr_mult: 0
    decay_mult: 0
  }
  batch_norm_param {
    use_global_stats: false
  }
}
layer {
  name: "Scale23"
  type: "Scale"
  bottom: "BatchNo
I0911 16:23:56.447643  9828 layer_factory.hpp:77] Creating layer data
I0911 16:23:56.447657  9828 net.cpp:92] Creating Layer data
I0911 16:23:56.447662  9828 net.cpp:400] data -> data
I0911 16:23:56.447679  9828 net.cpp:400] data -> label
I0911 16:23:56.447691  9828 hdf5_data_layer.cpp:102] Loading list of HDF5 filenames from: ./train_list.txt
I0911 16:23:56.447720  9828 hdf5_data_layer.cpp:116] Number of HDF5 files: 9
I0911 16:23:56.448364  9828 hdf5.cpp:32] Datatype class: H5T_FLOAT
I0911 16:23:56.473183  9828 hdf5.cpp:35] Datatype class: H5T_INTEGER
I0911 16:23:56.491127  9828 net.cpp:142] Setting up data
I0911 16:23:56.491148  9828 net.cpp:149] Top shape: 4 2 64 64 64 (2097152)
I0911 16:23:56.491153  9828 net.cpp:149] Top shape: 4 1 64 64 64 (1048576)
I0911 16:23:56.491154  9828 net.cpp:157] Memory required for data: 12582912
I0911 16:23:56.491174  9828 layer_factory.hpp:77] Creating layer conv1a
I0911 16:23:56.491204  9828 net.cpp:92] Creating Layer conv1a
I0911 16:23:56.491207  9828 net.cpp:426] conv1a <- data
I0911 16:23:56.491215  9828 net.cpp:400] conv1a -> conv1a
I0911 16:23:56.729176  9828 net.cpp:142] Setting up conv1a
I0911 16:23:56.729197  9828 net.cpp:149] Top shape: 4 32 64 64 64 (33554432)
I0911 16:23:56.729199  9828 net.cpp:157] Memory required for data: 146800640
I0911 16:23:56.729228  9828 layer_factory.hpp:77] Creating layer bnorm1a
I0911 16:23:56.729238  9828 net.cpp:92] Creating Layer bnorm1a
I0911 16:23:56.729241  9828 net.cpp:426] bnorm1a <- conv1a
I0911 16:23:56.729245  9828 net.cpp:400] bnorm1a -> bnorm1a
I0911 16:23:56.729996  9828 net.cpp:142] Setting up bnorm1a
I0911 16:23:56.730005  9828 net.cpp:149] Top shape: 4 32 64 64 64 (33554432)
I0911 16:23:56.730008  9828 net.cpp:157] Memory required for data: 281018368
I0911 16:23:56.730015  9828 layer_factory.hpp:77] Creating layer scale1a
I0911 16:23:56.730037  9828 net.cpp:92] Creating Layer scale1a
I0911 16:23:56.730039  9828 net.cpp:426] scale1a <- bnorm1a
I0911 16:23:56.730043  9828 net.cpp:387] scale1a -> bnorm1a (in-place)
I0911 16:23:56.730113  9828 layer_factory.hpp:77] Creating layer scale1a
I0911 16:23:56.730871  9828 net.cpp:142] Setting up scale1a
I0911 16:23:56.730880  9828 net.cpp:149] Top shape: 4 32 64 64 64 (33554432)
I0911 16:23:56.730892  9828 net.cpp:157] Memory required for data: 415236096
I0911 16:23:56.730913  9828 layer_factory.hpp:77] Creating layer relu1a
I0911 16:23:56.730917  9828 net.cpp:92] Creating Layer relu1a
I0911 16:23:56.730921  9828 net.cpp:426] relu1a <- bnorm1a
I0911 16:23:56.730937  9828 net.cpp:387] relu1a -> bnorm1a (in-place)
I0911 16:23:56.731087  9828 net.cpp:142] Setting up relu1a
I0911 16:23:56.731093  9828 net.cpp:149] Top shape: 4 32 64 64 64 (33554432)
I0911 16:23:56.731096  9828 net.cpp:157] Memory required for data: 549453824
I0911 16:23:56.731098  9828 layer_factory.hpp:77] Creating layer conv1b
I0911 16:23:56.731104  9828 net.cpp:92] Creating Layer conv1b
I0911 16:23:56.731107  9828 net.cpp:426] conv1b <- bnorm1a
I0911 16:23:56.731111  9828 net.cpp:400] conv1b -> conv1b
I0911 16:23:56.732936  9828 net.cpp:142] Setting up conv1b
I0911 16:23:56.732946  9828 net.cpp:149] Top shape: 4 32 64 64 64 (33554432)
I0911 16:23:56.732949  9828 net.cpp:157] Memory required for data: 683671552
I0911 16:23:56.732954  9828 layer_factory.hpp:77] Creating layer bnorm1b
I0911 16:23:56.732973  9828 net.cpp:92] Creating Layer bnorm1b
I0911 16:23:56.732976  9828 net.cpp:426] bnorm1b <- conv1b
I0911 16:23:56.732992  9828 net.cpp:400] bnorm1b -> bnorm1b
I0911 16:23:56.733327  9828 net.cpp:142] Setting up bnorm1b
I0911 16:23:56.733332  9828 net.cpp:149] Top shape: 4 32 64 64 64 (33554432)
I0911 16:23:56.733335  9828 net.cpp:157] Memory required for data: 817889280
I0911 16:23:56.733342  9828 layer_factory.hpp:77] Creating layer scale1b
I0911 16:23:56.733361  9828 net.cpp:92] Creating Layer scale1b
I0911 16:23:56.733364  9828 net.cpp:426] scale1b <- bnorm1b
I0911 16:23:56.733367  9828 net.cpp:387] scale1b -> bnorm1b (in-place)
I0911 16:23:56.733391  9828 layer_factory.hpp:77] Creating layer scale1b
I0911 16:23:56.734304  9828 net.cpp:142] Setting up scale1b
I0911 16:23:56.734328  9828 net.cpp:149] Top shape: 4 32 64 64 64 (33554432)
I0911 16:23:56.734330  9828 net.cpp:157] Memory required for data: 952107008
I0911 16:23:56.734349  9828 layer_factory.hpp:77] Creating layer relu1b
I0911 16:23:56.734355  9828 net.cpp:92] Creating Layer relu1b
I0911 16:23:56.734370  9828 net.cpp:426] relu1b <- bnorm1b
I0911 16:23:56.734375  9828 net.cpp:387] relu1b -> bnorm1b (in-place)
I0911 16:23:56.734529  9828 net.cpp:142] Setting up relu1b
I0911 16:23:56.734534  9828 net.cpp:149] Top shape: 4 32 64 64 64 (33554432)
I0911 16:23:56.734536  9828 net.cpp:157] Memory required for data: 1086324736
I0911 16:23:56.734539  9828 layer_factory.hpp:77] Creating layer conv1c
I0911 16:23:56.734544  9828 net.cpp:92] Creating Layer conv1c
I0911 16:23:56.734561  9828 net.cpp:426] conv1c <- bnorm1b
I0911 16:23:56.734565  9828 net.cpp:400] conv1c -> conv1c
I0911 16:23:56.735855  9828 net.cpp:142] Setting up conv1c
I0911 16:23:56.735864  9828 net.cpp:149] Top shape: 4 32 64 64 64 (33554432)
I0911 16:23:56.735867  9828 net.cpp:157] Memory required for data: 1220542464
I0911 16:23:56.735872  9828 layer_factory.hpp:77] Creating layer conv1c_conv1c_0_split
I0911 16:23:56.735877  9828 net.cpp:92] Creating Layer conv1c_conv1c_0_split
I0911 16:23:56.735878  9828 net.cpp:426] conv1c_conv1c_0_split <- conv1c
I0911 16:23:56.735882  9828 net.cpp:400] conv1c_conv1c_0_split -> conv1c_conv1c_0_split_0
I0911 16:23:56.735888  9828 net.cpp:400] conv1c_conv1c_0_split -> conv1c_conv1c_0_split_1
I0911 16:23:56.735927  9828 net.cpp:142] Setting up conv1c_conv1c_0_split
I0911 16:23:56.735934  9828 net.cpp:149] Top shape: 4 32 64 64 64 (33554432)
I0911 16:23:56.735952  9828 net.cpp:149] Top shape: 4 32 64 64 64 (33554432)
I0911 16:23:56.735955  9828 net.cpp:157] Memory required for data: 1488977920
I0911 16:23:56.735960  9828 layer_factory.hpp:77] Creating layer bnorm1c
I0911 16:23:56.735978  9828 net.cpp:92] Creating Layer bnorm1c
I0911 16:23:56.735985  9828 net.cpp:426] bnorm1c <- conv1c_conv1c_0_split_0
I0911 16:23:56.735991  9828 net.cpp:400] bnorm1c -> bnorm1c
I0911 16:23:56.736783  9828 net.cpp:142] Setting up bnorm1c
I0911 16:23:56.736826  9828 net.cpp:149] Top shape: 4 32 64 64 64 (33554432)
I0911 16:23:56.736829  9828 net.cpp:157] Memory required for data: 1623195648
I0911 16:23:56.736838  9828 layer_factory.hpp:77] Creating layer scale1c
I0911 16:23:56.736843  9828 net.cpp:92] Creating Layer scale1c
I0911 16:23:56.736847  9828 net.cpp:426] scale1c <- bnorm1c
I0911 16:23:56.736851  9828 net.cpp:387] scale1c -> bnorm1c (in-place)
I0911 16:23:56.736903  9828 layer_factory.hpp:77] Creating layer scale1c
I0911 16:23:56.737668  9828 net.cpp:142] Setting up scale1c
I0911 16:23:56.737676  9828 net.cpp:149] Top shape: 4 32 64 64 64 (33554432)
I0911 16:23:56.737679  9828 net.cpp:157] Memory required for data: 1757413376
I0911 16:23:56.737684  9828 layer_factory.hpp:77] Creating layer relu1c
I0911 16:23:56.737702  9828 net.cpp:92] Creating Layer relu1c
I0911 16:23:56.737705  9828 net.cpp:426] relu1c <- bnorm1c
I0911 16:23:56.737709  9828 net.cpp:387] relu1c -> bnorm1c (in-place)
I0911 16:23:56.737993  9828 net.cpp:142] Setting up relu1c
I0911 16:23:56.738001  9828 net.cpp:149] Top shape: 4 32 64 64 64 (33554432)
I0911 16:23:56.738004  9828 net.cpp:157] Memory required for data: 1891631104
I0911 16:23:56.738006  9828 layer_factory.hpp:77] Creating layer Conv_down_1
I0911 16:23:56.738029  9828 net.cpp:92] Creating Layer Conv_down_1
I0911 16:23:56.738030  9828 net.cpp:426] Conv_down_1 <- bnorm1c
I0911 16:23:56.738049  9828 net.cpp:400] Conv_down_1 -> Conv_down_1
I0911 16:23:56.739416  9828 net.cpp:142] Setting up Conv_down_1
I0911 16:23:56.739425  9828 net.cpp:149] Top shape: 4 32 32 32 32 (4194304)
I0911 16:23:56.739428  9828 net.cpp:157] Memory required for data: 1908408320
I0911 16:23:56.739433  9828 layer_factory.hpp:77] Creating layer Conv_down_1_Conv_down_1_0_split
I0911 16:23:56.739454  9828 net.cpp:92] Creating Layer Conv_down_1_Conv_down_1_0_split
I0911 16:23:56.739456  9828 net.cpp:426] Conv_down_1_Conv_down_1_0_split <- Conv_down_1
I0911 16:23:56.739460  9828 net.cpp:400] Conv_down_1_Conv_down_1_0_split -> Conv_down_1_Conv_down_1_0_split_0
I0911 16:23:56.739465  9828 net.cpp:400] Conv_down_1_Conv_down_1_0_split -> Conv_down_1_Conv_down_1_0_split_1
I0911 16:23:56.739506  9828 net.cpp:142] Setting up Conv_down_1_Conv_down_1_0_split
I0911 16:23:56.739522  9828 net.cpp:149] Top shape: 4 32 32 32 32 (4194304)
I0911 16:23:56.739526  9828 net.cpp:149] Top shape: 4 32 32 32 32 (4194304)
I0911 16:23:56.739527  9828 net.cpp:157] Memory required for data: 1941962752
I0911 16:23:56.739531  9828 layer_factory.hpp:77] Creating layer BatchNorm1
I0911 16:23:56.739538  9828 net.cpp:92] Creating Layer BatchNorm1
I0911 16:23:56.739540  9828 net.cpp:426] BatchNorm1 <- Conv_down_1_Conv_down_1_0_split_0
I0911 16:23:56.739544  9828 net.cpp:400] BatchNorm1 -> BatchNorm1
I0911 16:23:56.739722  9828 net.cpp:142] Setting up BatchNorm1
I0911 16:23:56.739727  9828 net.cpp:149] Top shape: 4 32 32 32 32 (4194304)
I0911 16:23:56.739728  9828 net.cpp:157] Memory required for data: 1958739968
I0911 16:23:56.739733  9828 layer_factory.hpp:77] Creating layer Scale1
I0911 16:23:56.739738  9828 net.cpp:92] Creating Layer Scale1
I0911 16:23:56.739756  9828 net.cpp:426] Scale1 <- BatchNorm1
I0911 16:23:56.739759  9828 net.cpp:387] Scale1 -> BatchNorm1 (in-place)
I0911 16:23:56.739797  9828 layer_factory.hpp:77] Creating layer Scale1
I0911 16:23:56.739928  9828 net.cpp:142] Setting up Scale1
I0911 16:23:56.739933  9828 net.cpp:149] Top shape: 4 32 32 32 32 (4194304)
I0911 16:23:56.739935  9828 net.cpp:157] Memory required for data: 1975517184
I0911 16:23:56.739939  9828 layer_factory.hpp:77] Creating layer ReLU1
I0911 16:23:56.739943  9828 net.cpp:92] Creating Layer ReLU1
I0911 16:23:56.739944  9828 net.cpp:426] ReLU1 <- BatchNorm1
I0911 16:23:56.739962  9828 net.cpp:387] ReLU1 -> BatchNorm1 (in-place)
I0911 16:23:56.740119  9828 net.cpp:142] Setting up ReLU1
I0911 16:23:56.740125  9828 net.cpp:149] Top shape: 4 32 32 32 32 (4194304)
I0911 16:23:56.740128  9828 net.cpp:157] Memory required for data: 1992294400
I0911 16:23:56.740130  9828 layer_factory.hpp:77] Creating layer Convolution1
I0911 16:23:56.740159  9828 net.cpp:92] Creating Layer Convolution1
I0911 16:23:56.740161  9828 net.cpp:426] Convolution1 <- BatchNorm1
I0911 16:23:56.740166  9828 net.cpp:400] Convolution1 -> Convolution1
I0911 16:23:56.740972  9828 net.cpp:142] Setting up Convolution1
I0911 16:23:56.740981  9828 net.cpp:149] Top shape: 4 64 32 32 32 (8388608)
I0911 16:23:56.740984  9828 net.cpp:157] Memory required for data: 2025848832
I0911 16:23:56.740988  9828 layer_factory.hpp:77] Creating layer BatchNorm2
I0911 16:23:56.740993  9828 net.cpp:92] Creating Layer BatchNorm2
I0911 16:23:56.741010  9828 net.cpp:426] BatchNorm2 <- Convolution1
I0911 16:23:56.741016  9828 net.cpp:400] BatchNorm2 -> BatchNorm2
I0911 16:23:56.741233  9828 net.cpp:142] Setting up BatchNorm2
I0911 16:23:56.741238  9828 net.cpp:149] Top shape: 4 64 32 32 32 (8388608)
I0911 16:23:56.741241  9828 net.cpp:157] Memory required for data: 2059403264
I0911 16:23:56.741245  9828 layer_factory.hpp:77] Creating layer Scale2
I0911 16:23:56.741250  9828 net.cpp:92] Creating Layer Scale2
I0911 16:23:56.741266  9828 net.cpp:426] Scale2 <- BatchNorm2
I0911 16:23:56.741271  9828 net.cpp:387] Scale2 -> BatchNorm2 (in-place)
I0911 16:23:56.741307  9828 layer_factory.hpp:77] Creating layer Scale2
I0911 16:23:56.741452  9828 net.cpp:142] Setting up Scale2
I0911 16:23:56.741457  9828 net.cpp:149] Top shape: 4 64 32 32 32 (8388608)
I0911 16:23:56.741459  9828 net.cpp:157] Memory required for data: 2092957696
I0911 16:23:56.741463  9828 layer_factory.hpp:77] Creating layer ReLU2
I0911 16:23:56.741467  9828 net.cpp:92] Creating Layer ReLU2
I0911 16:23:56.741470  9828 net.cpp:426] ReLU2 <- BatchNorm2
I0911 16:23:56.741488  9828 net.cpp:387] ReLU2 -> BatchNorm2 (in-place)
I0911 16:23:56.741611  9828 net.cpp:142] Setting up ReLU2
I0911 16:23:56.741617  9828 net.cpp:149] Top shape: 4 64 32 32 32 (8388608)
I0911 16:23:56.741621  9828 net.cpp:157] Memory required for data: 2126512128
I0911 16:23:56.741622  9828 layer_factory.hpp:77] Creating layer Convolution2
I0911 16:23:56.741627  9828 net.cpp:92] Creating Layer Convolution2
I0911 16:23:56.741644  9828 net.cpp:426] Convolution2 <- BatchNorm2
I0911 16:23:56.741649  9828 net.cpp:400] Convolution2 -> Convolution2
I0911 16:23:56.743125  9828 net.cpp:142] Setting up Convolution2
I0911 16:23:56.743135  9828 net.cpp:149] Top shape: 4 16 32 32 32 (2097152)
I0911 16:23:56.743139  9828 net.cpp:157] Memory required for data: 2134900736
I0911 16:23:56.743142  9828 layer_factory.hpp:77] Creating layer Dropout1
I0911 16:23:56.743161  9828 net.cpp:92] Creating Layer Dropout1
I0911 16:23:56.743165  9828 net.cpp:426] Dropout1 <- Convolution2
I0911 16:23:56.743168  9828 net.cpp:400] Dropout1 -> Dropout1
I0911 16:23:56.743213  9828 net.cpp:142] Setting up Dropout1
I0911 16:23:56.743232  9828 net.cpp:149] Top shape: 4 16 32 32 32 (2097152)
I0911 16:23:56.743233  9828 net.cpp:157] Memory required for data: 2143289344
I0911 16:23:56.743237  9828 layer_factory.hpp:77] Creating layer Concat_1
I0911 16:23:56.743253  9828 net.cpp:92] Creating Layer Concat_1
I0911 16:23:56.743257  9828 net.cpp:426] Concat_1 <- Conv_down_1_Conv_down_1_0_split_1
I0911 16:23:56.743258  9828 net.cpp:426] Concat_1 <- Dropout1
I0911 16:23:56.743278  9828 net.cpp:400] Concat_1 -> Concat_1
I0911 16:23:56.743295  9828 net.cpp:142] Setting up Concat_1
I0911 16:23:56.743300  9828 net.cpp:149] Top shape: 4 48 32 32 32 (6291456)
I0911 16:23:56.743315  9828 net.cpp:157] Memory required for data: 2168455168
I0911 16:23:56.743317  9828 layer_factory.hpp:77] Creating layer Concat_1_Concat_1_0_split
I0911 16:23:56.743321  9828 net.cpp:92] Creating Layer Concat_1_Concat_1_0_split
I0911 16:23:56.743338  9828 net.cpp:426] Concat_1_Concat_1_0_split <- Concat_1
I0911 16:23:56.743341  9828 net.cpp:400] Concat_1_Concat_1_0_split -> Concat_1_Concat_1_0_split_0
I0911 16:23:56.743346  9828 net.cpp:400] Concat_1_Concat_1_0_split -> Concat_1_Concat_1_0_split_1
I0911 16:23:56.743383  9828 net.cpp:142] Setting up Concat_1_Concat_1_0_split
I0911 16:23:56.743387  9828 net.cpp:149] Top shape: 4 48 32 32 32 (6291456)
I0911 16:23:56.743398  9828 net.cpp:149] Top shape: 4 48 32 32 32 (6291456)
I0911 16:23:56.743401  9828 net.cpp:157] Memory required for data: 2218786816
I0911 16:23:56.743402  9828 layer_factory.hpp:77] Creating layer BatchNorm3
I0911 16:23:56.743407  9828 net.cpp:92] Creating Layer BatchNorm3
I0911 16:23:56.743409  9828 net.cpp:426] BatchNorm3 <- Concat_1_Concat_1_0_split_0
I0911 16:23:56.743413  9828 net.cpp:400] BatchNorm3 -> BatchNorm3
I0911 16:23:56.743573  9828 net.cpp:142] Setting up BatchNorm3
I0911 16:23:56.743578  9828 net.cpp:149] Top shape: 4 48 32 32 32 (6291456)
I0911 16:23:56.743580  9828 net.cpp:157] Memory required for data: 2243952640
I0911 16:23:56.743588  9828 layer_factory.hpp:77] Creating layer Scale3
I0911 16:23:56.743608  9828 net.cpp:92] Creating Layer Scale3
I0911 16:23:56.743612  9828 net.cpp:426] Scale3 <- BatchNorm3
I0911 16:23:56.743615  9828 net.cpp:387] Scale3 -> BatchNorm3 (in-place)
I0911 16:23:56.743654  9828 layer_factory.hpp:77] Creating layer Scale3
I0911 16:23:56.743819  9828 net.cpp:142] Setting up Scale3
I0911 16:23:56.743825  9828 net.cpp:149] Top shape: 4 48 32 32 32 (6291456)
I0911 16:23:56.743827  9828 net.cpp:157] Memory required for data: 2269118464
I0911 16:23:56.743831  9828 layer_factory.hpp:77] Creating layer ReLU3
I0911 16:23:56.743834  9828 net.cpp:92] Creating Layer ReLU3
I0911 16:23:56.743837  9828 net.cpp:426] ReLU3 <- BatchNorm3
I0911 16:23:56.743855  9828 net.cpp:387] ReLU3 -> BatchNorm3 (in-place)
I0911 16:23:56.744001  9828 net.cpp:142] Setting up ReLU3
I0911 16:23:56.744007  9828 net.cpp:149] Top shape: 4 48 32 32 32 (6291456)
I0911 16:23:56.744010  9828 net.cpp:157] Memory required for data: 2294284288
I0911 16:23:56.744014  9828 layer_factory.hpp:77] Creating layer Convolution3
I0911 16:23:56.744019  9828 net.cpp:92] Creating Layer Convolution3
I0911 16:23:56.744024  9828 net.cpp:426] Convolution3 <- BatchNorm3
I0911 16:23:56.744041  9828 net.cpp:400] Convolution3 -> Convolution3
I0911 16:23:56.745065  9828 net.cpp:142] Setting up Convolution3
I0911 16:23:56.745075  9828 net.cpp:149] Top shape: 4 64 32 32 32 (8388608)
I0911 16:23:56.745079  9828 net.cpp:157] Memory required for data: 2327838720
I0911 16:23:56.745082  9828 layer_factory.hpp:77] Creating layer BatchNorm4
I0911 16:23:56.745086  9828 net.cpp:92] Creating Layer BatchNorm4
I0911 16:23:56.745102  9828 net.cpp:426] BatchNorm4 <- Convolution3
I0911 16:23:56.745108  9828 net.cpp:400] BatchNorm4 -> BatchNorm4
I0911 16:23:56.745299  9828 net.cpp:142] Setting up BatchNorm4
I0911 16:23:56.745306  9828 net.cpp:149] Top shape: 4 64 32 32 32 (8388608)
I0911 16:23:56.745307  9828 net.cpp:157] Memory required for data: 2361393152
I0911 16:23:56.745312  9828 layer_factory.hpp:77] Creating layer Scale4
I0911 16:23:56.745332  9828 net.cpp:92] Creating Layer Scale4
I0911 16:23:56.745335  9828 net.cpp:426] Scale4 <- BatchNorm4
I0911 16:23:56.745339  9828 net.cpp:387] Scale4 -> BatchNorm4 (in-place)
I0911 16:23:56.745380  9828 layer_factory.hpp:77] Creating layer Scale4
I0911 16:23:56.745504  9828 net.cpp:142] Setting up Scale4
I0911 16:23:56.745509  9828 net.cpp:149] Top shape: 4 64 32 32 32 (8388608)
I0911 16:23:56.745512  9828 net.cpp:157] Memory required for data: 2394947584
I0911 16:23:56.745517  9828 layer_factory.hpp:77] Creating layer ReLU4
I0911 16:23:56.745520  9828 net.cpp:92] Creating Layer ReLU4
I0911 16:23:56.745523  9828 net.cpp:426] ReLU4 <- BatchNorm4
I0911 16:23:56.745542  9828 net.cpp:387] ReLU4 -> BatchNorm4 (in-place)
I0911 16:23:56.745714  9828 net.cpp:142] Setting up ReLU4
I0911 16:23:56.745721  9828 net.cpp:149] Top shape: 4 64 32 32 32 (8388608)
I0911 16:23:56.745723  9828 net.cpp:157] Memory required for data: 2428502016
I0911 16:23:56.745726  9828 layer_factory.hpp:77] Creating layer Convolution4
I0911 16:23:56.745744  9828 net.cpp:92] Creating Layer Convolution4
I0911 16:23:56.745748  9828 net.cpp:426] Convolution4 <- BatchNorm4
I0911 16:23:56.745753  9828 net.cpp:400] Convolution4 -> Convolution4
I0911 16:23:56.747349  9828 net.cpp:142] Setting up Convolution4
I0911 16:23:56.747359  9828 net.cpp:149] Top shape: 4 16 32 32 32 (2097152)
I0911 16:23:56.747370  9828 net.cpp:157] Memory required for data: 2436890624
I0911 16:23:56.747373  9828 layer_factory.hpp:77] Creating layer Dropout2
I0911 16:23:56.747378  9828 net.cpp:92] Creating Layer Dropout2
I0911 16:23:56.747380  9828 net.cpp:426] Dropout2 <- Convolution4
I0911 16:23:56.747385  9828 net.cpp:400] Dropout2 -> Dropout2
I0911 16:23:56.747413  9828 net.cpp:142] Setting up Dropout2
I0911 16:23:56.747419  9828 net.cpp:149] Top shape: 4 16 32 32 32 (2097152)
I0911 16:23:56.747421  9828 net.cpp:157] Memory required for data: 2445279232
I0911 16:23:56.747423  9828 layer_factory.hpp:77] Creating layer Concat_2
I0911 16:23:56.747427  9828 net.cpp:92] Creating Layer Concat_2
I0911 16:23:56.747431  9828 net.cpp:426] Concat_2 <- Concat_1_Concat_1_0_split_1
I0911 16:23:56.747433  9828 net.cpp:426] Concat_2 <- Dropout2
I0911 16:23:56.747437  9828 net.cpp:400] Concat_2 -> Concat_2
I0911 16:23:56.747452  9828 net.cpp:142] Setting up Concat_2
I0911 16:23:56.747455  9828 net.cpp:149] Top shape: 4 64 32 32 32 (8388608)
I0911 16:23:56.747459  9828 net.cpp:157] Memory required for data: 2478833664
I0911 16:23:56.747462  9828 layer_factory.hpp:77] Creating layer Concat_2_Concat_2_0_split
I0911 16:23:56.747465  9828 net.cpp:92] Creating Layer Concat_2_Concat_2_0_split
I0911 16:23:56.747467  9828 net.cpp:426] Concat_2_Concat_2_0_split <- Concat_2
I0911 16:23:56.747470  9828 net.cpp:400] Concat_2_Concat_2_0_split -> Concat_2_Concat_2_0_split_0
I0911 16:23:56.747488  9828 net.cpp:400] Concat_2_Concat_2_0_split -> Concat_2_Concat_2_0_split_1
I0911 16:23:56.747524  9828 net.cpp:142] Setting up Concat_2_Concat_2_0_split
I0911 16:23:56.747544  9828 net.cpp:149] Top shape: 4 64 32 32 32 (8388608)
I0911 16:23:56.747546  9828 net.cpp:149] Top shape: 4 64 32 32 32 (8388608)
I0911 16:23:56.747548  9828 net.cpp:157] Memory required for data: 2545942528
I0911 16:23:56.747550  9828 layer_factory.hpp:77] Creating layer BatchNorm5
I0911 16:23:56.747566  9828 net.cpp:92] Creating Layer BatchNorm5
I0911 16:23:56.747570  9828 net.cpp:426] BatchNorm5 <- Concat_2_Concat_2_0_split_0
I0911 16:23:56.747586  9828 net.cpp:400] BatchNorm5 -> BatchNorm5
I0911 16:23:56.748198  9828 net.cpp:142] Setting up BatchNorm5
I0911 16:23:56.748208  9828 net.cpp:149] Top shape: 4 64 32 32 32 (8388608)
I0911 16:23:56.748209  9828 net.cpp:157] Memory required for data: 2579496960
I0911 16:23:56.748215  9828 layer_factory.hpp:77] Creating layer Scale5
I0911 16:23:56.748219  9828 net.cpp:92] Creating Layer Scale5
I0911 16:23:56.748222  9828 net.cpp:426] Scale5 <- BatchNorm5
I0911 16:23:56.748226  9828 net.cpp:387] Scale5 -> BatchNorm5 (in-place)
I0911 16:23:56.748255  9828 layer_factory.hpp:77] Creating layer Scale5
I0911 16:23:56.748349  9828 net.cpp:142] Setting up Scale5
I0911 16:23:56.748354  9828 net.cpp:149] Top shape: 4 64 32 32 32 (8388608)
I0911 16:23:56.748356  9828 net.cpp:157] Memory required for data: 2613051392
I0911 16:23:56.748360  9828 layer_factory.hpp:77] Creating layer ReLU5
I0911 16:23:56.748364  9828 net.cpp:92] Creating Layer ReLU5
I0911 16:23:56.748366  9828 net.cpp:426] ReLU5 <- BatchNorm5
I0911 16:23:56.748369  9828 net.cpp:387] ReLU5 -> BatchNorm5 (in-place)
I0911 16:23:56.748495  9828 net.cpp:142] Setting up ReLU5
I0911 16:23:56.748502  9828 net.cpp:149] Top shape: 4 64 32 32 32 (8388608)
I0911 16:23:56.748504  9828 net.cpp:157] Memory required for data: 2646605824
I0911 16:23:56.748507  9828 layer_factory.hpp:77] Creating layer Convolution5
I0911 16:23:56.748512  9828 net.cpp:92] Creating Layer Convolution5
I0911 16:23:56.748514  9828 net.cpp:426] Convolution5 <- BatchNorm5
I0911 16:23:56.748519  9828 net.cpp:400] Convolution5 -> Convolution5
I0911 16:23:56.749229  9828 net.cpp:142] Setting up Convolution5
I0911 16:23:56.749238  9828 net.cpp:149] Top shape: 4 64 32 32 32 (8388608)
I0911 16:23:56.749241  9828 net.cpp:157] Memory required for data: 2680160256
I0911 16:23:56.749245  9828 layer_factory.hpp:77] Creating layer BatchNorm6
I0911 16:23:56.749250  9828 net.cpp:92] Creating Layer BatchNorm6
I0911 16:23:56.749259  9828 net.cpp:426] BatchNorm6 <- Convolution5
I0911 16:23:56.749265  9828 net.cpp:400] BatchNorm6 -> BatchNorm6
I0911 16:23:56.749411  9828 net.cpp:142] Setting up BatchNorm6
I0911 16:23:56.749416  9828 net.cpp:149] Top shape: 4 64 32 32 32 (8388608)
I0911 16:23:56.749419  9828 net.cpp:157] Memory required for data: 2713714688
I0911 16:23:56.749423  9828 layer_factory.hpp:77] Creating layer Scale6
I0911 16:23:56.749428  9828 net.cpp:92] Creating Layer Scale6
I0911 16:23:56.749430  9828 net.cpp:426] Scale6 <- BatchNorm6
I0911 16:23:56.749434  9828 net.cpp:387] Scale6 -> BatchNorm6 (in-place)
I0911 16:23:56.749459  9828 layer_factory.hpp:77] Creating layer Scale6
I0911 16:23:56.749553  9828 net.cpp:142] Setting up Scale6
I0911 16:23:56.749559  9828 net.cpp:149] Top shape: 4 64 32 32 32 (8388608)
I0911 16:23:56.749562  9828 net.cpp:157] Memory required for data: 2747269120
I0911 16:23:56.749565  9828 layer_factory.hpp:77] Creating layer ReLU6
I0911 16:23:56.749568  9828 net.cpp:92] Creating Layer ReLU6
I0911 16:23:56.749570  9828 net.cpp:426] ReLU6 <- BatchNorm6
I0911 16:23:56.749573  9828 net.cpp:387] ReLU6 -> BatchNorm6 (in-place)
I0911 16:23:56.749848  9828 net.cpp:142] Setting up ReLU6
I0911 16:23:56.749856  9828 net.cpp:149] Top shape: 4 64 32 32 32 (8388608)
I0911 16:23:56.749860  9828 net.cpp:157] Memory required for data: 2780823552
I0911 16:23:56.749862  9828 layer_factory.hpp:77] Creating layer Convolution6
I0911 16:23:56.749868  9828 net.cpp:92] Creating Layer Convolution6
I0911 16:23:56.749871  9828 net.cpp:426] Convolution6 <- BatchNorm6
I0911 16:23:56.749876  9828 net.cpp:400] Convolution6 -> Convolution6
I0911 16:23:56.751140  9828 net.cpp:142] Setting up Convolution6
I0911 16:23:56.751149  9828 net.cpp:149] Top shape: 4 16 32 32 32 (2097152)
I0911 16:23:56.751152  9828 net.cpp:157] Memory required for data: 2789212160
I0911 16:23:56.751155  9828 layer_factory.hpp:77] Creating layer Dropout3
I0911 16:23:56.751159  9828 net.cpp:92] Creating Layer Dropout3
I0911 16:23:56.751163  9828 net.cpp:426] Dropout3 <- Convolution6
I0911 16:23:56.751166  9828 net.cpp:400] Dropout3 -> Dropout3
I0911 16:23:56.751194  9828 net.cpp:142] Setting up Dropout3
I0911 16:23:56.751199  9828 net.cpp:149] Top shape: 4 16 32 32 32 (2097152)
I0911 16:23:56.751201  9828 net.cpp:157] Memory required for data: 2797600768
I0911 16:23:56.751204  9828 layer_factory.hpp:77] Creating layer Concat_3
I0911 16:23:56.751207  9828 net.cpp:92] Creating Layer Concat_3
I0911 16:23:56.751209  9828 net.cpp:426] Concat_3 <- Concat_2_Concat_2_0_split_1
I0911 16:23:56.751212  9828 net.cpp:426] Concat_3 <- Dropout3
I0911 16:23:56.751215  9828 net.cpp:400] Concat_3 -> Concat_3
I0911 16:23:56.751231  9828 net.cpp:142] Setting up Concat_3
I0911 16:23:56.751235  9828 net.cpp:149] Top shape: 4 80 32 32 32 (10485760)
I0911 16:23:56.751237  9828 net.cpp:157] Memory required for data: 2839543808
I0911 16:23:56.751240  9828 layer_factory.hpp:77] Creating layer Concat_3_Concat_3_0_split
I0911 16:23:56.751242  9828 net.cpp:92] Creating Layer Concat_3_Concat_3_0_split
I0911 16:23:56.751245  9828 net.cpp:426] Concat_3_Concat_3_0_split <- Concat_3
I0911 16:23:56.751248  9828 net.cpp:400] Concat_3_Concat_3_0_split -> Concat_3_Concat_3_0_split_0
I0911 16:23:56.751252  9828 net.cpp:400] Concat_3_Concat_3_0_split -> Concat_3_Concat_3_0_split_1
I0911 16:23:56.751276  9828 net.cpp:142] Setting up Concat_3_Concat_3_0_split
I0911 16:23:56.751279  9828 net.cpp:149] Top shape: 4 80 32 32 32 (10485760)
I0911 16:23:56.751282  9828 net.cpp:149] Top shape: 4 80 32 32 32 (10485760)
I0911 16:23:56.751284  9828 net.cpp:157] Memory required for data: 2923429888
I0911 16:23:56.751286  9828 layer_factory.hpp:77] Creating layer BatchNorm7
I0911 16:23:56.751289  9828 net.cpp:92] Creating Layer BatchNorm7
I0911 16:23:56.751292  9828 net.cpp:426] BatchNorm7 <- Concat_3_Concat_3_0_split_0
I0911 16:23:56.751296  9828 net.cpp:400] BatchNorm7 -> BatchNorm7
I0911 16:23:56.751437  9828 net.cpp:142] Setting up BatchNorm7
I0911 16:23:56.751442  9828 net.cpp:149] Top shape: 4 80 32 32 32 (10485760)
I0911 16:23:56.751451  9828 net.cpp:157] Memory required for data: 2965372928
I0911 16:23:56.751456  9828 layer_factory.hpp:77] Creating layer Scale7
I0911 16:23:56.751461  9828 net.cpp:92] Creating Layer Scale7
I0911 16:23:56.751462  9828 net.cpp:426] Scale7 <- BatchNorm7
I0911 16:23:56.751466  9828 net.cpp:387] Scale7 -> BatchNorm7 (in-place)
I0911 16:23:56.751492  9828 layer_factory.hpp:77] Creating layer Scale7
I0911 16:23:56.751590  9828 net.cpp:142] Setting up Scale7
I0911 16:23:56.751595  9828 net.cpp:149] Top shape: 4 80 32 32 32 (10485760)
I0911 16:23:56.751597  9828 net.cpp:157] Memory required for data: 3007315968
I0911 16:23:56.751601  9828 layer_factory.hpp:77] Creating layer ReLU7
I0911 16:23:56.751605  9828 net.cpp:92] Creating Layer ReLU7
I0911 16:23:56.751621  9828 net.cpp:426] ReLU7 <- BatchNorm7
I0911 16:23:56.751624  9828 net.cpp:387] ReLU7 -> BatchNorm7 (in-place)
I0911 16:23:56.751766  9828 net.cpp:142] Setting up ReLU7
I0911 16:23:56.751772  9828 net.cpp:149] Top shape: 4 80 32 32 32 (10485760)
I0911 16:23:56.751775  9828 net.cpp:157] Memory required for data: 3049259008
I0911 16:23:56.751778  9828 layer_factory.hpp:77] Creating layer Convolution7
I0911 16:23:56.751799  9828 net.cpp:92] Creating Layer Convolution7
I0911 16:23:56.751802  9828 net.cpp:426] Convolution7 <- BatchNorm7
I0911 16:23:56.751807  9828 net.cpp:400] Convolution7 -> Convolution7
I0911 16:23:56.752563  9828 net.cpp:142] Setting up Convolution7
I0911 16:23:56.752573  9828 net.cpp:149] Top shape: 4 64 32 32 32 (8388608)
I0911 16:23:56.752575  9828 net.cpp:157] Memory required for data: 3082813440
I0911 16:23:56.752579  9828 layer_factory.hpp:77] Creating layer BatchNorm8
I0911 16:23:56.752584  9828 net.cpp:92] Creating Layer BatchNorm8
I0911 16:23:56.752588  9828 net.cpp:426] BatchNorm8 <- Convolution7
I0911 16:23:56.752593  9828 net.cpp:400] BatchNorm8 -> BatchNorm8
I0911 16:23:56.752779  9828 net.cpp:142] Setting up BatchNorm8
I0911 16:23:56.752784  9828 net.cpp:149] Top shape: 4 64 32 32 32 (8388608)
I0911 16:23:56.752786  9828 net.cpp:157] Memory required for data: 3116367872
I0911 16:23:56.752799  9828 layer_factory.hpp:77] Creating layer Scale8
I0911 16:23:56.752816  9828 net.cpp:92] Creating Layer Scale8
I0911 16:23:56.752820  9828 net.cpp:426] Scale8 <- BatchNorm8
I0911 16:23:56.752823  9828 net.cpp:387] Scale8 -> BatchNorm8 (in-place)
I0911 16:23:56.752851  9828 layer_factory.hpp:77] Creating layer Scale8
I0911 16:23:56.752949  9828 net.cpp:142] Setting up Scale8
I0911 16:23:56.752954  9828 net.cpp:149] Top shape: 4 64 32 32 32 (8388608)
I0911 16:23:56.752957  9828 net.cpp:157] Memory required for data: 3149922304
I0911 16:23:56.752961  9828 layer_factory.hpp:77] Creating layer ReLU8
I0911 16:23:56.752965  9828 net.cpp:92] Creating Layer ReLU8
I0911 16:23:56.752969  9828 net.cpp:426] ReLU8 <- BatchNorm8
I0911 16:23:56.752974  9828 net.cpp:387] ReLU8 -> BatchNorm8 (in-place)
I0911 16:23:56.753113  9828 net.cpp:142] Setting up ReLU8
I0911 16:23:56.753119  9828 net.cpp:149] Top shape: 4 64 32 32 32 (8388608)
I0911 16:23:56.753123  9828 net.cpp:157] Memory required for data: 3183476736
I0911 16:23:56.753125  9828 layer_factory.hpp:77] Creating layer Convolution8
I0911 16:23:56.753131  9828 net.cpp:92] Creating Layer Convolution8
I0911 16:23:56.753135  9828 net.cpp:426] Convolution8 <- BatchNorm8
I0911 16:23:56.753139  9828 net.cpp:400] Convolution8 -> Convolution8
I0911 16:23:56.754479  9828 net.cpp:142] Setting up Convolution8
I0911 16:23:56.754488  9828 net.cpp:149] Top shape: 4 16 32 32 32 (2097152)
I0911 16:23:56.754492  9828 net.cpp:157] Memory required for data: 3191865344
I0911 16:23:56.754495  9828 layer_factory.hpp:77] Creating layer Dropout4
I0911 16:23:56.754499  9828 net.cpp:92] Creating Layer Dropout4
I0911 16:23:56.754503  9828 net.cpp:426] Dropout4 <- Convolution8
I0911 16:23:56.754508  9828 net.cpp:400] Dropout4 -> Dropout4
I0911 16:23:56.754535  9828 net.cpp:142] Setting up Dropout4
I0911 16:23:56.754539  9828 net.cpp:149] Top shape: 4 16 32 32 32 (2097152)
I0911 16:23:56.754542  9828 net.cpp:157] Memory required for data: 3200253952
I0911 16:23:56.754551  9828 layer_factory.hpp:77] Creating layer Concat_4
I0911 16:23:56.754556  9828 net.cpp:92] Creating Layer Concat_4
I0911 16:23:56.754559  9828 net.cpp:426] Concat_4 <- Concat_3_Concat_3_0_split_1
I0911 16:23:56.754562  9828 net.cpp:426] Concat_4 <- Dropout4
I0911 16:23:56.754566  9828 net.cpp:400] Concat_4 -> Concat_4
I0911 16:23:56.754583  9828 net.cpp:142] Setting up Concat_4
I0911 16:23:56.754587  9828 net.cpp:149] Top shape: 4 96 32 32 32 (12582912)
I0911 16:23:56.754590  9828 net.cpp:157] Memory required for data: 3250585600
I0911 16:23:56.754592  9828 layer_factory.hpp:77] Creating layer Concat_4_Concat_4_0_split
I0911 16:23:56.754596  9828 net.cpp:92] Creating Layer Concat_4_Concat_4_0_split
I0911 16:23:56.754601  9828 net.cpp:426] Concat_4_Concat_4_0_split <- Concat_4
I0911 16:23:56.754604  9828 net.cpp:400] Concat_4_Concat_4_0_split -> Concat_4_Concat_4_0_split_0
I0911 16:23:56.754608  9828 net.cpp:400] Concat_4_Concat_4_0_split -> Concat_4_Concat_4_0_split_1
I0911 16:23:56.754647  9828 net.cpp:142] Setting up Concat_4_Concat_4_0_split
I0911 16:23:56.754652  9828 net.cpp:149] Top shape: 4 96 32 32 32 (12582912)
I0911 16:23:56.754654  9828 net.cpp:149] Top shape: 4 96 32 32 32 (12582912)
I0911 16:23:56.754657  9828 net.cpp:157] Memory required for data: 3351248896
I0911 16:23:56.754659  9828 layer_factory.hpp:77] Creating layer Deconvolution_5
I0911 16:23:56.754665  9828 net.cpp:92] Creating Layer Deconvolution_5
I0911 16:23:56.754669  9828 net.cpp:426] Deconvolution_5 <- Concat_4_Concat_4_0_split_0
I0911 16:23:56.754673  9828 net.cpp:400] Deconvolution_5 -> Deconvolution_5
I0911 16:23:56.757458  9828 net.cpp:142] Setting up Deconvolution_5
I0911 16:23:56.757468  9828 net.cpp:149] Top shape: 4 4 64 64 64 (4194304)
I0911 16:23:56.757472  9828 net.cpp:157] Memory required for data: 3368026112
I0911 16:23:56.757475  9828 layer_factory.hpp:77] Creating layer BatchNorm9
I0911 16:23:56.757480  9828 net.cpp:92] Creating Layer BatchNorm9
I0911 16:23:56.757483  9828 net.cpp:426] BatchNorm9 <- Concat_4_Concat_4_0_split_1
I0911 16:23:56.757488  9828 net.cpp:400] BatchNorm9 -> BatchNorm9
I0911 16:23:56.757664  9828 net.cpp:142] Setting up BatchNorm9
I0911 16:23:56.757670  9828 net.cpp:149] Top shape: 4 96 32 32 32 (12582912)
I0911 16:23:56.757673  9828 net.cpp:157] Memory required for data: 3418357760
I0911 16:23:56.757692  9828 layer_factory.hpp:77] Creating layer Scale9
I0911 16:23:56.757696  9828 net.cpp:92] Creating Layer Scale9
I0911 16:23:56.757699  9828 net.cpp:426] Scale9 <- BatchNorm9
I0911 16:23:56.757702  9828 net.cpp:387] Scale9 -> BatchNorm9 (in-place)
I0911 16:23:56.757771  9828 layer_factory.hpp:77] Creating layer Scale9
I0911 16:23:56.758366  9828 net.cpp:142] Setting up Scale9
I0911 16:23:56.758374  9828 net.cpp:149] Top shape: 4 96 32 32 32 (12582912)
I0911 16:23:56.758378  9828 net.cpp:157] Memory required for data: 3468689408
I0911 16:23:56.758381  9828 layer_factory.hpp:77] Creating layer ReLU9
I0911 16:23:56.758385  9828 net.cpp:92] Creating Layer ReLU9
I0911 16:23:56.758388  9828 net.cpp:426] ReLU9 <- BatchNorm9
I0911 16:23:56.758393  9828 net.cpp:387] ReLU9 -> BatchNorm9 (in-place)
I0911 16:23:56.758671  9828 net.cpp:142] Setting up ReLU9
I0911 16:23:56.758678  9828 net.cpp:149] Top shape: 4 96 32 32 32 (12582912)
I0911 16:23:56.758682  9828 net.cpp:157] Memory required for data: 3519021056
I0911 16:23:56.758683  9828 layer_factory.hpp:77] Creating layer Convolution9
I0911 16:23:56.758694  9828 net.cpp:92] Creating Layer Convolution9
I0911 16:23:56.758697  9828 net.cpp:426] Convolution9 <- BatchNorm9
I0911 16:23:56.758702  9828 net.cpp:400] Convolution9 -> Convolution9
I0911 16:23:56.759502  9828 net.cpp:142] Setting up Convolution9
I0911 16:23:56.759511  9828 net.cpp:149] Top shape: 4 48 32 32 32 (6291456)
I0911 16:23:56.759515  9828 net.cpp:157] Memory required for data: 3544186880
I0911 16:23:56.759518  9828 layer_factory.hpp:77] Creating layer BatchNorm10
I0911 16:23:56.759536  9828 net.cpp:92] Creating Layer BatchNorm10
I0911 16:23:56.759548  9828 net.cpp:426] BatchNorm10 <- Convolution9
I0911 16:23:56.759553  9828 net.cpp:400] BatchNorm10 -> BatchNorm10
I0911 16:23:56.759726  9828 net.cpp:142] Setting up BatchNorm10
I0911 16:23:56.759730  9828 net.cpp:149] Top shape: 4 48 32 32 32 (6291456)
I0911 16:23:56.759732  9828 net.cpp:157] Memory required for data: 3569352704
I0911 16:23:56.759737  9828 layer_factory.hpp:77] Creating layer Scale10
I0911 16:23:56.759742  9828 net.cpp:92] Creating Layer Scale10
I0911 16:23:56.759757  9828 net.cpp:426] Scale10 <- BatchNorm10
I0911 16:23:56.759762  9828 net.cpp:387] Scale10 -> BatchNorm10 (in-place)
I0911 16:23:56.759802  9828 layer_factory.hpp:77] Creating layer Scale10
I0911 16:23:56.759946  9828 net.cpp:142] Setting up Scale10
I0911 16:23:56.759953  9828 net.cpp:149] Top shape: 4 48 32 32 32 (6291456)
I0911 16:23:56.759954  9828 net.cpp:157] Memory required for data: 3594518528
I0911 16:23:56.759958  9828 layer_factory.hpp:77] Creating layer ReLU10
I0911 16:23:56.759963  9828 net.cpp:92] Creating Layer ReLU10
I0911 16:23:56.759977  9828 net.cpp:426] ReLU10 <- BatchNorm10
I0911 16:23:56.759981  9828 net.cpp:387] ReLU10 -> BatchNorm10 (in-place)
I0911 16:23:56.760274  9828 net.cpp:142] Setting up ReLU10
I0911 16:23:56.760282  9828 net.cpp:149] Top shape: 4 48 32 32 32 (6291456)
I0911 16:23:56.760285  9828 net.cpp:157] Memory required for data: 3619684352
I0911 16:23:56.760288  9828 layer_factory.hpp:77] Creating layer Conv_down_5
I0911 16:23:56.760308  9828 net.cpp:92] Creating Layer Conv_down_5
I0911 16:23:56.760311  9828 net.cpp:426] Conv_down_5 <- BatchNorm10
I0911 16:23:56.760315  9828 net.cpp:400] Conv_down_5 -> Conv_down_5
I0911 16:23:56.761654  9828 net.cpp:142] Setting up Conv_down_5
I0911 16:23:56.761665  9828 net.cpp:149] Top shape: 4 48 16 16 16 (786432)
I0911 16:23:56.761668  9828 net.cpp:157] Memory required for data: 3622830080
I0911 16:23:56.761672  9828 layer_factory.hpp:77] Creating layer Conv_down_5_Conv_down_5_0_split
I0911 16:23:56.761693  9828 net.cpp:92] Creating Layer Conv_down_5_Conv_down_5_0_split
I0911 16:23:56.761695  9828 net.cpp:426] Conv_down_5_Conv_down_5_0_split <- Conv_down_5
I0911 16:23:56.761700  9828 net.cpp:400] Conv_down_5_Conv_down_5_0_split -> Conv_down_5_Conv_down_5_0_split_0
I0911 16:23:56.761705  9828 net.cpp:400] Conv_down_5_Conv_down_5_0_split -> Conv_down_5_Conv_down_5_0_split_1
I0911 16:23:56.761749  9828 net.cpp:142] Setting up Conv_down_5_Conv_down_5_0_split
I0911 16:23:56.761754  9828 net.cpp:149] Top shape: 4 48 16 16 16 (786432)
I0911 16:23:56.761756  9828 net.cpp:149] Top shape: 4 48 16 16 16 (786432)
I0911 16:23:56.761759  9828 net.cpp:157] Memory required for data: 3629121536
I0911 16:23:56.761761  9828 layer_factory.hpp:77] Creating layer BatchNorm11
I0911 16:23:56.761766  9828 net.cpp:92] Creating Layer BatchNorm11
I0911 16:23:56.761768  9828 net.cpp:426] BatchNorm11 <- Conv_down_5_Conv_down_5_0_split_0
I0911 16:23:56.761772  9828 net.cpp:400] BatchNorm11 -> BatchNorm11
I0911 16:23:56.761940  9828 net.cpp:142] Setting up BatchNorm11
I0911 16:23:56.761945  9828 net.cpp:149] Top shape: 4 48 16 16 16 (786432)
I0911 16:23:56.761947  9828 net.cpp:157] Memory required for data: 3632267264
I0911 16:23:56.761952  9828 layer_factory.hpp:77] Creating layer Scale11
I0911 16:23:56.761970  9828 net.cpp:92] Creating Layer Scale11
I0911 16:23:56.761975  9828 net.cpp:426] Scale11 <- BatchNorm11
I0911 16:23:56.761981  9828 net.cpp:387] Scale11 -> BatchNorm11 (in-place)
I0911 16:23:56.762033  9828 layer_factory.hpp:77] Creating layer Scale11
I0911 16:23:56.762150  9828 net.cpp:142] Setting up Scale11
I0911 16:23:56.762156  9828 net.cpp:149] Top shape: 4 48 16 16 16 (786432)
I0911 16:23:56.762157  9828 net.cpp:157] Memory required for data: 3635412992
I0911 16:23:56.762161  9828 layer_factory.hpp:77] Creating layer ReLU11
I0911 16:23:56.762166  9828 net.cpp:92] Creating Layer ReLU11
I0911 16:23:56.762167  9828 net.cpp:426] ReLU11 <- BatchNorm11
I0911 16:23:56.762184  9828 net.cpp:387] ReLU11 -> BatchNorm11 (in-place)
I0911 16:23:56.762363  9828 net.cpp:142] Setting up ReLU11
I0911 16:23:56.762377  9828 net.cpp:149] Top shape: 4 48 16 16 16 (786432)
I0911 16:23:56.762379  9828 net.cpp:157] Memory required for data: 3638558720
I0911 16:23:56.762382  9828 layer_factory.hpp:77] Creating layer Convolution10
I0911 16:23:56.762388  9828 net.cpp:92] Creating Layer Convolution10
I0911 16:23:56.762404  9828 net.cpp:426] Convolution10 <- BatchNorm11
I0911 16:23:56.762409  9828 net.cpp:400] Convolution10 -> Convolution10
I0911 16:23:56.763172  9828 net.cpp:142] Setting up Convolution10
I0911 16:23:56.763182  9828 net.cpp:149] Top shape: 4 64 16 16 16 (1048576)
I0911 16:23:56.763185  9828 net.cpp:157] Memory required for data: 3642753024
I0911 16:23:56.763203  9828 layer_factory.hpp:77] Creating layer BatchNorm12
I0911 16:23:56.763209  9828 net.cpp:92] Creating Layer BatchNorm12
I0911 16:23:56.763212  9828 net.cpp:426] BatchNorm12 <- Convolution10
I0911 16:23:56.763229  9828 net.cpp:400] BatchNorm12 -> BatchNorm12
I0911 16:23:56.763444  9828 net.cpp:142] Setting up BatchNorm12
I0911 16:23:56.763450  9828 net.cpp:149] Top shape: 4 64 16 16 16 (1048576)
I0911 16:23:56.763453  9828 net.cpp:157] Memory required for data: 3646947328
I0911 16:23:56.763458  9828 layer_factory.hpp:77] Creating layer Scale12
I0911 16:23:56.763461  9828 net.cpp:92] Creating Layer Scale12
I0911 16:23:56.763464  9828 net.cpp:426] Scale12 <- BatchNorm12
I0911 16:23:56.763468  9828 net.cpp:387] Scale12 -> BatchNorm12 (in-place)
I0911 16:23:56.763509  9828 layer_factory.hpp:77] Creating layer Scale12
I0911 16:23:56.763586  9828 net.cpp:142] Setting up Scale12
I0911 16:23:56.763590  9828 net.cpp:149] Top shape: 4 64 16 16 16 (1048576)
I0911 16:23:56.763593  9828 net.cpp:157] Memory required for data: 3651141632
I0911 16:23:56.763597  9828 layer_factory.hpp:77] Creating layer ReLU12
I0911 16:23:56.763600  9828 net.cpp:92] Creating Layer ReLU12
I0911 16:23:56.763602  9828 net.cpp:426] ReLU12 <- BatchNorm12
I0911 16:23:56.763605  9828 net.cpp:387] ReLU12 -> BatchNorm12 (in-place)
I0911 16:23:56.763720  9828 net.cpp:142] Setting up ReLU12
I0911 16:23:56.763726  9828 net.cpp:149] Top shape: 4 64 16 16 16 (1048576)
I0911 16:23:56.763728  9828 net.cpp:157] Memory required for data: 3655335936
I0911 16:23:56.763731  9828 layer_factory.hpp:77] Creating layer Convolution11
I0911 16:23:56.763736  9828 net.cpp:92] Creating Layer Convolution11
I0911 16:23:56.763739  9828 net.cpp:426] Convolution11 <- BatchNorm12
I0911 16:23:56.763744  9828 net.cpp:400] Convolution11 -> Convolution11
I0911 16:23:56.764912  9828 net.cpp:142] Setting up Convolution11
I0911 16:23:56.764921  9828 net.cpp:149] Top shape: 4 16 16 16 16 (262144)
I0911 16:23:56.764925  9828 net.cpp:157] Memory required for data: 3656384512
I0911 16:23:56.764928  9828 layer_factory.hpp:77] Creating layer Dropout5
I0911 16:23:56.764933  9828 net.cpp:92] Creating Layer Dropout5
I0911 16:23:56.764936  9828 net.cpp:426] Dropout5 <- Convolution11
I0911 16:23:56.764940  9828 net.cpp:400] Dropout5 -> Dropout5
I0911 16:23:56.764967  9828 net.cpp:142] Setting up Dropout5
I0911 16:23:56.764972  9828 net.cpp:149] Top shape: 4 16 16 16 16 (262144)
I0911 16:23:56.764974  9828 net.cpp:157] Memory required for data: 3657433088
I0911 16:23:56.764977  9828 layer_factory.hpp:77] Creating layer Concat_6
I0911 16:23:56.764981  9828 net.cpp:92] Creating Layer Concat_6
I0911 16:23:56.764983  9828 net.cpp:426] Concat_6 <- Conv_down_5_Conv_down_5_0_split_1
I0911 16:23:56.764986  9828 net.cpp:426] Concat_6 <- Dropout5
I0911 16:23:56.764991  9828 net.cpp:400] Concat_6 -> Concat_6
I0911 16:23:56.765005  9828 net.cpp:142] Setting up Concat_6
I0911 16:23:56.765010  9828 net.cpp:149] Top shape: 4 64 16 16 16 (1048576)
I0911 16:23:56.765012  9828 net.cpp:157] Memory required for data: 3661627392
I0911 16:23:56.765014  9828 layer_factory.hpp:77] Creating layer Concat_6_Concat_6_0_split
I0911 16:23:56.765018  9828 net.cpp:92] Creating Layer Concat_6_Concat_6_0_split
I0911 16:23:56.765020  9828 net.cpp:426] Concat_6_Concat_6_0_split <- Concat_6
I0911 16:23:56.765024  9828 net.cpp:400] Concat_6_Concat_6_0_split -> Concat_6_Concat_6_0_split_0
I0911 16:23:56.765035  9828 net.cpp:400] Concat_6_Concat_6_0_split -> Concat_6_Concat_6_0_split_1
I0911 16:23:56.765059  9828 net.cpp:142] Setting up Concat_6_Concat_6_0_split
I0911 16:23:56.765063  9828 net.cpp:149] Top shape: 4 64 16 16 16 (1048576)
I0911 16:23:56.765065  9828 net.cpp:149] Top shape: 4 64 16 16 16 (1048576)
I0911 16:23:56.765067  9828 net.cpp:157] Memory required for data: 3670016000
I0911 16:23:56.765069  9828 layer_factory.hpp:77] Creating layer BatchNorm13
I0911 16:23:56.765074  9828 net.cpp:92] Creating Layer BatchNorm13
I0911 16:23:56.765076  9828 net.cpp:426] BatchNorm13 <- Concat_6_Concat_6_0_split_0
I0911 16:23:56.765080  9828 net.cpp:400] BatchNorm13 -> BatchNorm13
I0911 16:23:56.765216  9828 net.cpp:142] Setting up BatchNorm13
I0911 16:23:56.765220  9828 net.cpp:149] Top shape: 4 64 16 16 16 (1048576)
I0911 16:23:56.765223  9828 net.cpp:157] Memory required for data: 3674210304
I0911 16:23:56.765226  9828 layer_factory.hpp:77] Creating layer Scale13
I0911 16:23:56.765231  9828 net.cpp:92] Creating Layer Scale13
I0911 16:23:56.765234  9828 net.cpp:426] Scale13 <- BatchNorm13
I0911 16:23:56.765238  9828 net.cpp:387] Scale13 -> BatchNorm13 (in-place)
I0911 16:23:56.765264  9828 layer_factory.hpp:77] Creating layer Scale13
I0911 16:23:56.765341  9828 net.cpp:142] Setting up Scale13
I0911 16:23:56.765346  9828 net.cpp:149] Top shape: 4 64 16 16 16 (1048576)
I0911 16:23:56.765347  9828 net.cpp:157] Memory required for data: 3678404608
I0911 16:23:56.765352  9828 layer_factory.hpp:77] Creating layer ReLU13
I0911 16:23:56.765354  9828 net.cpp:92] Creating Layer ReLU13
I0911 16:23:56.765357  9828 net.cpp:426] ReLU13 <- BatchNorm13
I0911 16:23:56.765360  9828 net.cpp:387] ReLU13 -> BatchNorm13 (in-place)
I0911 16:23:56.765471  9828 net.cpp:142] Setting up ReLU13
I0911 16:23:56.765476  9828 net.cpp:149] Top shape: 4 64 16 16 16 (1048576)
I0911 16:23:56.765478  9828 net.cpp:157] Memory required for data: 3682598912
I0911 16:23:56.765481  9828 layer_factory.hpp:77] Creating layer Convolution12
I0911 16:23:56.765486  9828 net.cpp:92] Creating Layer Convolution12
I0911 16:23:56.765488  9828 net.cpp:426] Convolution12 <- BatchNorm13
I0911 16:23:56.765493  9828 net.cpp:400] Convolution12 -> Convolution12
I0911 16:23:56.766233  9828 net.cpp:142] Setting up Convolution12
I0911 16:23:56.766240  9828 net.cpp:149] Top shape: 4 64 16 16 16 (1048576)
I0911 16:23:56.766243  9828 net.cpp:157] Memory required for data: 3686793216
I0911 16:23:56.766247  9828 layer_factory.hpp:77] Creating layer BatchNorm14
I0911 16:23:56.766252  9828 net.cpp:92] Creating Layer BatchNorm14
I0911 16:23:56.766255  9828 net.cpp:426] BatchNorm14 <- Convolution12
I0911 16:23:56.766259  9828 net.cpp:400] BatchNorm14 -> BatchNorm14
I0911 16:23:56.766400  9828 net.cpp:142] Setting up BatchNorm14
I0911 16:23:56.766405  9828 net.cpp:149] Top shape: 4 64 16 16 16 (1048576)
I0911 16:23:56.766407  9828 net.cpp:157] Memory required for data: 3690987520
I0911 16:23:56.766412  9828 layer_factory.hpp:77] Creating layer Scale14
I0911 16:23:56.766417  9828 net.cpp:92] Creating Layer Scale14
I0911 16:23:56.766419  9828 net.cpp:426] Scale14 <- BatchNorm14
I0911 16:23:56.766422  9828 net.cpp:387] Scale14 -> BatchNorm14 (in-place)
I0911 16:23:56.766448  9828 layer_factory.hpp:77] Creating layer Scale14
I0911 16:23:56.766525  9828 net.cpp:142] Setting up Scale14
I0911 16:23:56.766530  9828 net.cpp:149] Top shape: 4 64 16 16 16 (1048576)
I0911 16:23:56.766531  9828 net.cpp:157] Memory required for data: 3695181824
I0911 16:23:56.766535  9828 layer_factory.hpp:77] Creating layer ReLU14
I0911 16:23:56.766538  9828 net.cpp:92] Creating Layer ReLU14
I0911 16:23:56.766541  9828 net.cpp:426] ReLU14 <- BatchNorm14
I0911 16:23:56.766544  9828 net.cpp:387] ReLU14 -> BatchNorm14 (in-place)
I0911 16:23:56.766822  9828 net.cpp:142] Setting up ReLU14
I0911 16:23:56.766829  9828 net.cpp:149] Top shape: 4 64 16 16 16 (1048576)
I0911 16:23:56.766832  9828 net.cpp:157] Memory required for data: 3699376128
I0911 16:23:56.766835  9828 layer_factory.hpp:77] Creating layer Convolution13
I0911 16:23:56.766847  9828 net.cpp:92] Creating Layer Convolution13
I0911 16:23:56.766850  9828 net.cpp:426] Convolution13 <- BatchNorm14
I0911 16:23:56.766855  9828 net.cpp:400] Convolution13 -> Convolution13
I0911 16:23:56.767824  9828 net.cpp:142] Setting up Convolution13
I0911 16:23:56.767832  9828 net.cpp:149] Top shape: 4 16 16 16 16 (262144)
I0911 16:23:56.767833  9828 net.cpp:157] Memory required for data: 3700424704
I0911 16:23:56.767838  9828 layer_factory.hpp:77] Creating layer Dropout6
I0911 16:23:56.767841  9828 net.cpp:92] Creating Layer Dropout6
I0911 16:23:56.767843  9828 net.cpp:426] Dropout6 <- Convolution13
I0911 16:23:56.767848  9828 net.cpp:400] Dropout6 -> Dropout6
I0911 16:23:56.767879  9828 net.cpp:142] Setting up Dropout6
I0911 16:23:56.767884  9828 net.cpp:149] Top shape: 4 16 16 16 16 (262144)
I0911 16:23:56.767885  9828 net.cpp:157] Memory required for data: 3701473280
I0911 16:23:56.767887  9828 layer_factory.hpp:77] Creating layer Concat_7
I0911 16:23:56.767891  9828 net.cpp:92] Creating Layer Concat_7
I0911 16:23:56.767894  9828 net.cpp:426] Concat_7 <- Concat_6_Concat_6_0_split_1
I0911 16:23:56.767897  9828 net.cpp:426] Concat_7 <- Dropout6
I0911 16:23:56.767900  9828 net.cpp:400] Concat_7 -> Concat_7
I0911 16:23:56.767916  9828 net.cpp:142] Setting up Concat_7
I0911 16:23:56.767920  9828 net.cpp:149] Top shape: 4 80 16 16 16 (1310720)
I0911 16:23:56.767922  9828 net.cpp:157] Memory required for data: 3706716160
I0911 16:23:56.767925  9828 layer_factory.hpp:77] Creating layer Concat_7_Concat_7_0_split
I0911 16:23:56.767927  9828 net.cpp:92] Creating Layer Concat_7_Concat_7_0_split
I0911 16:23:56.767930  9828 net.cpp:426] Concat_7_Concat_7_0_split <- Concat_7
I0911 16:23:56.767935  9828 net.cpp:400] Concat_7_Concat_7_0_split -> Concat_7_Concat_7_0_split_0
I0911 16:23:56.767938  9828 net.cpp:400] Concat_7_Concat_7_0_split -> Concat_7_Concat_7_0_split_1
I0911 16:23:56.767961  9828 net.cpp:142] Setting up Concat_7_Concat_7_0_split
I0911 16:23:56.767966  9828 net.cpp:149] Top shape: 4 80 16 16 16 (1310720)
I0911 16:23:56.767967  9828 net.cpp:149] Top shape: 4 80 16 16 16 (1310720)
I0911 16:23:56.767969  9828 net.cpp:157] Memory required for data: 3717201920
I0911 16:23:56.767971  9828 layer_factory.hpp:77] Creating layer BatchNorm15
I0911 16:23:56.767976  9828 net.cpp:92] Creating Layer BatchNorm15
I0911 16:23:56.767978  9828 net.cpp:426] BatchNorm15 <- Concat_7_Concat_7_0_split_0
I0911 16:23:56.767982  9828 net.cpp:400] BatchNorm15 -> BatchNorm15
I0911 16:23:56.768118  9828 net.cpp:142] Setting up BatchNorm15
I0911 16:23:56.768122  9828 net.cpp:149] Top shape: 4 80 16 16 16 (1310720)
I0911 16:23:56.768124  9828 net.cpp:157] Memory required for data: 3722444800
I0911 16:23:56.768129  9828 layer_factory.hpp:77] Creating layer Scale15
I0911 16:23:56.768133  9828 net.cpp:92] Creating Layer Scale15
I0911 16:23:56.768136  9828 net.cpp:426] Scale15 <- BatchNorm15
I0911 16:23:56.768139  9828 net.cpp:387] Scale15 -> BatchNorm15 (in-place)
I0911 16:23:56.768165  9828 layer_factory.hpp:77] Creating layer Scale15
I0911 16:23:56.768244  9828 net.cpp:142] Setting up Scale15
I0911 16:23:56.768249  9828 net.cpp:149] Top shape: 4 80 16 16 16 (1310720)
I0911 16:23:56.768250  9828 net.cpp:157] Memory required for data: 3727687680
I0911 16:23:56.768254  9828 layer_factory.hpp:77] Creating layer ReLU15
I0911 16:23:56.768257  9828 net.cpp:92] Creating Layer ReLU15
I0911 16:23:56.768260  9828 net.cpp:426] ReLU15 <- BatchNorm15
I0911 16:23:56.768262  9828 net.cpp:387] ReLU15 -> BatchNorm15 (in-place)
I0911 16:23:56.768540  9828 net.cpp:142] Setting up ReLU15
I0911 16:23:56.768548  9828 net.cpp:149] Top shape: 4 80 16 16 16 (1310720)
I0911 16:23:56.768550  9828 net.cpp:157] Memory required for data: 3732930560
I0911 16:23:56.768553  9828 layer_factory.hpp:77] Creating layer Convolution14
I0911 16:23:56.768559  9828 net.cpp:92] Creating Layer Convolution14
I0911 16:23:56.768563  9828 net.cpp:426] Convolution14 <- BatchNorm15
I0911 16:23:56.768566  9828 net.cpp:400] Convolution14 -> Convolution14
I0911 16:23:56.769400  9828 net.cpp:142] Setting up Convolution14
I0911 16:23:56.769407  9828 net.cpp:149] Top shape: 4 64 16 16 16 (1048576)
I0911 16:23:56.769410  9828 net.cpp:157] Memory required for data: 3737124864
I0911 16:23:56.769414  9828 layer_factory.hpp:77] Creating layer BatchNorm16
I0911 16:23:56.769419  9828 net.cpp:92] Creating Layer BatchNorm16
I0911 16:23:56.769421  9828 net.cpp:426] BatchNorm16 <- Convolution14
I0911 16:23:56.769425  9828 net.cpp:400] BatchNorm16 -> BatchNorm16
I0911 16:23:56.769628  9828 net.cpp:142] Setting up BatchNorm16
I0911 16:23:56.769632  9828 net.cpp:149] Top shape: 4 64 16 16 16 (1048576)
I0911 16:23:56.769634  9828 net.cpp:157] Memory required for data: 3741319168
I0911 16:23:56.769639  9828 layer_factory.hpp:77] Creating layer Scale16
I0911 16:23:56.769644  9828 net.cpp:92] Creating Layer Scale16
I0911 16:23:56.769647  9828 net.cpp:426] Scale16 <- BatchNorm16
I0911 16:23:56.769651  9828 net.cpp:387] Scale16 -> BatchNorm16 (in-place)
I0911 16:23:56.769690  9828 layer_factory.hpp:77] Creating layer Scale16
I0911 16:23:56.769768  9828 net.cpp:142] Setting up Scale16
I0911 16:23:56.769773  9828 net.cpp:149] Top shape: 4 64 16 16 16 (1048576)
I0911 16:23:56.769774  9828 net.cpp:157] Memory required for data: 3745513472
I0911 16:23:56.769778  9828 layer_factory.hpp:77] Creating layer ReLU16
I0911 16:23:56.769781  9828 net.cpp:92] Creating Layer ReLU16
I0911 16:23:56.769784  9828 net.cpp:426] ReLU16 <- BatchNorm16
I0911 16:23:56.769788  9828 net.cpp:387] ReLU16 -> BatchNorm16 (in-place)
I0911 16:23:56.769898  9828 net.cpp:142] Setting up ReLU16
I0911 16:23:56.769904  9828 net.cpp:149] Top shape: 4 64 16 16 16 (1048576)
I0911 16:23:56.769906  9828 net.cpp:157] Memory required for data: 3749707776
I0911 16:23:56.769908  9828 layer_factory.hpp:77] Creating layer Convolution15
I0911 16:23:56.769914  9828 net.cpp:92] Creating Layer Convolution15
I0911 16:23:56.769917  9828 net.cpp:426] Convolution15 <- BatchNorm16
I0911 16:23:56.769922  9828 net.cpp:400] Convolution15 -> Convolution15
I0911 16:23:56.771057  9828 net.cpp:142] Setting up Convolution15
I0911 16:23:56.771065  9828 net.cpp:149] Top shape: 4 16 16 16 16 (262144)
I0911 16:23:56.771067  9828 net.cpp:157] Memory required for data: 3750756352
I0911 16:23:56.771071  9828 layer_factory.hpp:77] Creating layer Dropout7
I0911 16:23:56.771075  9828 net.cpp:92] Creating Layer Dropout7
I0911 16:23:56.771078  9828 net.cpp:426] Dropout7 <- Convolution15
I0911 16:23:56.771082  9828 net.cpp:400] Dropout7 -> Dropout7
I0911 16:23:56.771108  9828 net.cpp:142] Setting up Dropout7
I0911 16:23:56.771113  9828 net.cpp:149] Top shape: 4 16 16 16 16 (262144)
I0911 16:23:56.771116  9828 net.cpp:157] Memory required for data: 3751804928
I0911 16:23:56.771117  9828 layer_factory.hpp:77] Creating layer Concat_8
I0911 16:23:56.771121  9828 net.cpp:92] Creating Layer Concat_8
I0911 16:23:56.771123  9828 net.cpp:426] Concat_8 <- Concat_7_Concat_7_0_split_1
I0911 16:23:56.771126  9828 net.cpp:426] Concat_8 <- Dropout7
I0911 16:23:56.771129  9828 net.cpp:400] Concat_8 -> Concat_8
I0911 16:23:56.771145  9828 net.cpp:142] Setting up Concat_8
I0911 16:23:56.771149  9828 net.cpp:149] Top shape: 4 96 16 16 16 (1572864)
I0911 16:23:56.771152  9828 net.cpp:157] Memory required for data: 3758096384
I0911 16:23:56.771153  9828 layer_factory.hpp:77] Creating layer Concat_8_Concat_8_0_split
I0911 16:23:56.771157  9828 net.cpp:92] Creating Layer Concat_8_Concat_8_0_split
I0911 16:23:56.771159  9828 net.cpp:426] Concat_8_Concat_8_0_split <- Concat_8
I0911 16:23:56.771162  9828 net.cpp:400] Concat_8_Concat_8_0_split -> Concat_8_Concat_8_0_split_0
I0911 16:23:56.771167  9828 net.cpp:400] Concat_8_Concat_8_0_split -> Concat_8_Concat_8_0_split_1
I0911 16:23:56.771190  9828 net.cpp:142] Setting up Concat_8_Concat_8_0_split
I0911 16:23:56.771193  9828 net.cpp:149] Top shape: 4 96 16 16 16 (1572864)
I0911 16:23:56.771196  9828 net.cpp:149] Top shape: 4 96 16 16 16 (1572864)
I0911 16:23:56.771198  9828 net.cpp:157] Memory required for data: 3770679296
I0911 16:23:56.771206  9828 layer_factory.hpp:77] Creating layer BatchNorm17
I0911 16:23:56.771210  9828 net.cpp:92] Creating Layer BatchNorm17
I0911 16:23:56.771212  9828 net.cpp:426] BatchNorm17 <- Concat_8_Concat_8_0_split_0
I0911 16:23:56.771217  9828 net.cpp:400] BatchNorm17 -> BatchNorm17
I0911 16:23:56.771359  9828 net.cpp:142] Setting up BatchNorm17
I0911 16:23:56.771363  9828 net.cpp:149] Top shape: 4 96 16 16 16 (1572864)
I0911 16:23:56.771365  9828 net.cpp:157] Memory required for data: 3776970752
I0911 16:23:56.771370  9828 layer_factory.hpp:77] Creating layer Scale17
I0911 16:23:56.771375  9828 net.cpp:92] Creating Layer Scale17
I0911 16:23:56.771378  9828 net.cpp:426] Scale17 <- BatchNorm17
I0911 16:23:56.771381  9828 net.cpp:387] Scale17 -> BatchNorm17 (in-place)
I0911 16:23:56.771407  9828 layer_factory.hpp:77] Creating layer Scale17
I0911 16:23:56.771487  9828 net.cpp:142] Setting up Scale17
I0911 16:23:56.771492  9828 net.cpp:149] Top shape: 4 96 16 16 16 (1572864)
I0911 16:23:56.771493  9828 net.cpp:157] Memory required for data: 3783262208
I0911 16:23:56.771497  9828 layer_factory.hpp:77] Creating layer ReLU17
I0911 16:23:56.771502  9828 net.cpp:92] Creating Layer ReLU17
I0911 16:23:56.771505  9828 net.cpp:426] ReLU17 <- BatchNorm17
I0911 16:23:56.771508  9828 net.cpp:387] ReLU17 -> BatchNorm17 (in-place)
I0911 16:23:56.771622  9828 net.cpp:142] Setting up ReLU17
I0911 16:23:56.771627  9828 net.cpp:149] Top shape: 4 96 16 16 16 (1572864)
I0911 16:23:56.771630  9828 net.cpp:157] Memory required for data: 3789553664
I0911 16:23:56.771631  9828 layer_factory.hpp:77] Creating layer Convolution16
I0911 16:23:56.771637  9828 net.cpp:92] Creating Layer Convolution16
I0911 16:23:56.771641  9828 net.cpp:426] Convolution16 <- BatchNorm17
I0911 16:23:56.771644  9828 net.cpp:400] Convolution16 -> Convolution16
I0911 16:23:56.772411  9828 net.cpp:142] Setting up Convolution16
I0911 16:23:56.772423  9828 net.cpp:149] Top shape: 4 64 16 16 16 (1048576)
I0911 16:23:56.772428  9828 net.cpp:157] Memory required for data: 3793747968
I0911 16:23:56.772433  9828 layer_factory.hpp:77] Creating layer BatchNorm18
I0911 16:23:56.772439  9828 net.cpp:92] Creating Layer BatchNorm18
I0911 16:23:56.772444  9828 net.cpp:426] BatchNorm18 <- Convolution16
I0911 16:23:56.772450  9828 net.cpp:400] BatchNorm18 -> BatchNorm18
I0911 16:23:56.772639  9828 net.cpp:142] Setting up BatchNorm18
I0911 16:23:56.772645  9828 net.cpp:149] Top shape: 4 64 16 16 16 (1048576)
I0911 16:23:56.772649  9828 net.cpp:157] Memory required for data: 3797942272
I0911 16:23:56.772655  9828 layer_factory.hpp:77] Creating layer Scale18
I0911 16:23:56.772661  9828 net.cpp:92] Creating Layer Scale18
I0911 16:23:56.772665  9828 net.cpp:426] Scale18 <- BatchNorm18
I0911 16:23:56.772668  9828 net.cpp:387] Scale18 -> BatchNorm18 (in-place)
I0911 16:23:56.772696  9828 layer_factory.hpp:77] Creating layer Scale18
I0911 16:23:56.772778  9828 net.cpp:142] Setting up Scale18
I0911 16:23:56.772783  9828 net.cpp:149] Top shape: 4 64 16 16 16 (1048576)
I0911 16:23:56.772784  9828 net.cpp:157] Memory required for data: 3802136576
I0911 16:23:56.772789  9828 layer_factory.hpp:77] Creating layer ReLU18
I0911 16:23:56.772791  9828 net.cpp:92] Creating Layer ReLU18
I0911 16:23:56.772794  9828 net.cpp:426] ReLU18 <- BatchNorm18
I0911 16:23:56.772797  9828 net.cpp:387] ReLU18 -> BatchNorm18 (in-place)
I0911 16:23:56.772972  9828 net.cpp:142] Setting up ReLU18
I0911 16:23:56.772977  9828 net.cpp:149] Top shape: 4 64 16 16 16 (1048576)
I0911 16:23:56.772979  9828 net.cpp:157] Memory required for data: 3806330880
I0911 16:23:56.772982  9828 layer_factory.hpp:77] Creating layer Convolution17
I0911 16:23:56.772989  9828 net.cpp:92] Creating Layer Convolution17
I0911 16:23:56.772991  9828 net.cpp:426] Convolution17 <- BatchNorm18
I0911 16:23:56.772995  9828 net.cpp:400] Convolution17 -> Convolution17
I0911 16:23:56.774430  9828 net.cpp:142] Setting up Convolution17
I0911 16:23:56.774437  9828 net.cpp:149] Top shape: 4 16 16 16 16 (262144)
I0911 16:23:56.774441  9828 net.cpp:157] Memory required for data: 3807379456
I0911 16:23:56.774484  9828 layer_factory.hpp:77] Creating layer Dropout8
I0911 16:23:56.774490  9828 net.cpp:92] Creating Layer Dropout8
I0911 16:23:56.774493  9828 net.cpp:426] Dropout8 <- Convolution17
I0911 16:23:56.774511  9828 net.cpp:400] Dropout8 -> Dropout8
I0911 16:23:56.774543  9828 net.cpp:142] Setting up Dropout8
I0911 16:23:56.774546  9828 net.cpp:149] Top shape: 4 16 16 16 16 (262144)
I0911 16:23:56.774549  9828 net.cpp:157] Memory required for data: 3808428032
I0911 16:23:56.774550  9828 layer_factory.hpp:77] Creating layer Concat_9
I0911 16:23:56.774555  9828 net.cpp:92] Creating Layer Concat_9
I0911 16:23:56.774559  9828 net.cpp:426] Concat_9 <- Concat_8_Concat_8_0_split_1
I0911 16:23:56.774561  9828 net.cpp:426] Concat_9 <- Dropout8
I0911 16:23:56.774579  9828 net.cpp:400] Concat_9 -> Concat_9
I0911 16:23:56.774595  9828 net.cpp:142] Setting up Concat_9
I0911 16:23:56.774598  9828 net.cpp:149] Top shape: 4 112 16 16 16 (1835008)
I0911 16:23:56.774600  9828 net.cpp:157] Memory required for data: 3815768064
I0911 16:23:56.774602  9828 layer_factory.hpp:77] Creating layer Concat_9_Concat_9_0_split
I0911 16:23:56.774605  9828 net.cpp:92] Creating Layer Concat_9_Concat_9_0_split
I0911 16:23:56.774608  9828 net.cpp:426] Concat_9_Concat_9_0_split <- Concat_9
I0911 16:23:56.774612  9828 net.cpp:400] Concat_9_Concat_9_0_split -> Concat_9_Concat_9_0_split_0
I0911 16:23:56.774616  9828 net.cpp:400] Concat_9_Concat_9_0_split -> Concat_9_Concat_9_0_split_1
I0911 16:23:56.774639  9828 net.cpp:142] Setting up Concat_9_Concat_9_0_split
I0911 16:23:56.774644  9828 net.cpp:149] Top shape: 4 112 16 16 16 (1835008)
I0911 16:23:56.774647  9828 net.cpp:149] Top shape: 4 112 16 16 16 (1835008)
I0911 16:23:56.774649  9828 net.cpp:157] Memory required for data: 3830448128
I0911 16:23:56.774652  9828 layer_factory.hpp:77] Creating layer Deconvolution_10
I0911 16:23:56.774657  9828 net.cpp:92] Creating Layer Deconvolution_10
I0911 16:23:56.774659  9828 net.cpp:426] Deconvolution_10 <- Concat_9_Concat_9_0_split_0
I0911 16:23:56.774663  9828 net.cpp:400] Deconvolution_10 -> Deconvolution_10
I0911 16:23:56.777950  9828 net.cpp:142] Setting up Deconvolution_10
I0911 16:23:56.777957  9828 net.cpp:149] Top shape: 4 4 64 64 64 (4194304)
I0911 16:23:56.777961  9828 net.cpp:157] Memory required for data: 3847225344
I0911 16:23:56.777964  9828 layer_factory.hpp:77] Creating layer BatchNorm19
I0911 16:23:56.777969  9828 net.cpp:92] Creating Layer BatchNorm19
I0911 16:23:56.777972  9828 net.cpp:426] BatchNorm19 <- Concat_9_Concat_9_0_split_1
I0911 16:23:56.777976  9828 net.cpp:400] BatchNorm19 -> BatchNorm19
I0911 16:23:56.778128  9828 net.cpp:142] Setting up BatchNorm19
I0911 16:23:56.778132  9828 net.cpp:149] Top shape: 4 112 16 16 16 (1835008)
I0911 16:23:56.778134  9828 net.cpp:157] Memory required for data: 3854565376
I0911 16:23:56.778139  9828 layer_factory.hpp:77] Creating layer Scale19
I0911 16:23:56.778143  9828 net.cpp:92] Creating Layer Scale19
I0911 16:23:56.778146  9828 net.cpp:426] Scale19 <- BatchNorm19
I0911 16:23:56.778149  9828 net.cpp:387] Scale19 -> BatchNorm19 (in-place)
I0911 16:23:56.778177  9828 layer_factory.hpp:77] Creating layer Scale19
I0911 16:23:56.778257  9828 net.cpp:142] Setting up Scale19
I0911 16:23:56.778261  9828 net.cpp:149] Top shape: 4 112 16 16 16 (1835008)
I0911 16:23:56.778264  9828 net.cpp:157] Memory required for data: 3861905408
I0911 16:23:56.778268  9828 layer_factory.hpp:77] Creating layer ReLU19
I0911 16:23:56.778271  9828 net.cpp:92] Creating Layer ReLU19
I0911 16:23:56.778273  9828 net.cpp:426] ReLU19 <- BatchNorm19
I0911 16:23:56.778277  9828 net.cpp:387] ReLU19 -> BatchNorm19 (in-place)
I0911 16:23:56.778393  9828 net.cpp:142] Setting up ReLU19
I0911 16:23:56.778398  9828 net.cpp:149] Top shape: 4 112 16 16 16 (1835008)
I0911 16:23:56.778400  9828 net.cpp:157] Memory required for data: 3869245440
I0911 16:23:56.778403  9828 layer_factory.hpp:77] Creating layer Convolution18
I0911 16:23:56.778409  9828 net.cpp:92] Creating Layer Convolution18
I0911 16:23:56.778411  9828 net.cpp:426] Convolution18 <- BatchNorm19
I0911 16:23:56.778422  9828 net.cpp:400] Convolution18 -> Convolution18
I0911 16:23:56.779223  9828 net.cpp:142] Setting up Convolution18
I0911 16:23:56.779230  9828 net.cpp:149] Top shape: 4 56 16 16 16 (917504)
I0911 16:23:56.779233  9828 net.cpp:157] Memory required for data: 3872915456
I0911 16:23:56.779237  9828 layer_factory.hpp:77] Creating layer BatchNorm20
I0911 16:23:56.779242  9828 net.cpp:92] Creating Layer BatchNorm20
I0911 16:23:56.779244  9828 net.cpp:426] BatchNorm20 <- Convolution18
I0911 16:23:56.779248  9828 net.cpp:400] BatchNorm20 -> BatchNorm20
I0911 16:23:56.779413  9828 net.cpp:142] Setting up BatchNorm20
I0911 16:23:56.779431  9828 net.cpp:149] Top shape: 4 56 16 16 16 (917504)
I0911 16:23:56.779433  9828 net.cpp:157] Memory required for data: 3876585472
I0911 16:23:56.779438  9828 layer_factory.hpp:77] Creating layer Scale20
I0911 16:23:56.779443  9828 net.cpp:92] Creating Layer Scale20
I0911 16:23:56.779445  9828 net.cpp:426] Scale20 <- BatchNorm20
I0911 16:23:56.779448  9828 net.cpp:387] Scale20 -> BatchNorm20 (in-place)
I0911 16:23:56.779475  9828 layer_factory.hpp:77] Creating layer Scale20
I0911 16:23:56.779554  9828 net.cpp:142] Setting up Scale20
I0911 16:23:56.779558  9828 net.cpp:149] Top shape: 4 56 16 16 16 (917504)
I0911 16:23:56.779561  9828 net.cpp:157] Memory required for data: 3880255488
I0911 16:23:56.779564  9828 layer_factory.hpp:77] Creating layer ReLU20
I0911 16:23:56.779568  9828 net.cpp:92] Creating Layer ReLU20
I0911 16:23:56.779572  9828 net.cpp:426] ReLU20 <- BatchNorm20
I0911 16:23:56.779574  9828 net.cpp:387] ReLU20 -> BatchNorm20 (in-place)
I0911 16:23:56.779707  9828 net.cpp:142] Setting up ReLU20
I0911 16:23:56.779712  9828 net.cpp:149] Top shape: 4 56 16 16 16 (917504)
I0911 16:23:56.779716  9828 net.cpp:157] Memory required for data: 3883925504
I0911 16:23:56.779717  9828 layer_factory.hpp:77] Creating layer Conv_down_10
I0911 16:23:56.779722  9828 net.cpp:92] Creating Layer Conv_down_10
I0911 16:23:56.779726  9828 net.cpp:426] Conv_down_10 <- BatchNorm20
I0911 16:23:56.779729  9828 net.cpp:400] Conv_down_10 -> Conv_down_10
I0911 16:23:56.780844  9828 net.cpp:142] Setting up Conv_down_10
I0911 16:23:56.780853  9828 net.cpp:149] Top shape: 4 56 8 8 8 (114688)
I0911 16:23:56.780854  9828 net.cpp:157] Memory required for data: 3884384256
I0911 16:23:56.780858  9828 layer_factory.hpp:77] Creating layer Conv_down_10_Conv_down_10_0_split
I0911 16:23:56.780863  9828 net.cpp:92] Creating Layer Conv_down_10_Conv_down_10_0_split
I0911 16:23:56.780865  9828 net.cpp:426] Conv_down_10_Conv_down_10_0_split <- Conv_down_10
I0911 16:23:56.780869  9828 net.cpp:400] Conv_down_10_Conv_down_10_0_split -> Conv_down_10_Conv_down_10_0_split_0
I0911 16:23:56.780874  9828 net.cpp:400] Conv_down_10_Conv_down_10_0_split -> Conv_down_10_Conv_down_10_0_split_1
I0911 16:23:56.780900  9828 net.cpp:142] Setting up Conv_down_10_Conv_down_10_0_split
I0911 16:23:56.780905  9828 net.cpp:149] Top shape: 4 56 8 8 8 (114688)
I0911 16:23:56.780906  9828 net.cpp:149] Top shape: 4 56 8 8 8 (114688)
I0911 16:23:56.780908  9828 net.cpp:157] Memory required for data: 3885301760
I0911 16:23:56.780911  9828 layer_factory.hpp:77] Creating layer BatchNorm21
I0911 16:23:56.780915  9828 net.cpp:92] Creating Layer BatchNorm21
I0911 16:23:56.780917  9828 net.cpp:426] BatchNorm21 <- Conv_down_10_Conv_down_10_0_split_0
I0911 16:23:56.780921  9828 net.cpp:400] BatchNorm21 -> BatchNorm21
I0911 16:23:56.781523  9828 net.cpp:142] Setting up BatchNorm21
I0911 16:23:56.781530  9828 net.cpp:149] Top shape: 4 56 8 8 8 (114688)
I0911 16:23:56.781533  9828 net.cpp:157] Memory required for data: 3885760512
I0911 16:23:56.781538  9828 layer_factory.hpp:77] Creating layer Scale21
I0911 16:23:56.781543  9828 net.cpp:92] Creating Layer Scale21
I0911 16:23:56.781545  9828 net.cpp:426] Scale21 <- BatchNorm21
I0911 16:23:56.781550  9828 net.cpp:387] Scale21 -> BatchNorm21 (in-place)
I0911 16:23:56.781580  9828 layer_factory.hpp:77] Creating layer Scale21
I0911 16:23:56.781654  9828 net.cpp:142] Setting up Scale21
I0911 16:23:56.781666  9828 net.cpp:149] Top shape: 4 56 8 8 8 (114688)
I0911 16:23:56.781668  9828 net.cpp:157] Memory required for data: 3886219264
I0911 16:23:56.781672  9828 layer_factory.hpp:77] Creating layer ReLU21
I0911 16:23:56.781677  9828 net.cpp:92] Creating Layer ReLU21
I0911 16:23:56.781678  9828 net.cpp:426] ReLU21 <- BatchNorm21
I0911 16:23:56.781682  9828 net.cpp:387] ReLU21 -> BatchNorm21 (in-place)
I0911 16:23:56.781803  9828 net.cpp:142] Setting up ReLU21
I0911 16:23:56.781808  9828 net.cpp:149] Top shape: 4 56 8 8 8 (114688)
I0911 16:23:56.781810  9828 net.cpp:157] Memory required for data: 3886678016
I0911 16:23:56.781813  9828 layer_factory.hpp:77] Creating layer Convolution19
I0911 16:23:56.781819  9828 net.cpp:92] Creating Layer Convolution19
I0911 16:23:56.781821  9828 net.cpp:426] Convolution19 <- BatchNorm21
I0911 16:23:56.781826  9828 net.cpp:400] Convolution19 -> Convolution19
I0911 16:23:56.782706  9828 net.cpp:142] Setting up Convolution19
I0911 16:23:56.782712  9828 net.cpp:149] Top shape: 4 64 8 8 8 (131072)
I0911 16:23:56.782716  9828 net.cpp:157] Memory required for data: 3887202304
I0911 16:23:56.782718  9828 layer_factory.hpp:77] Creating layer BatchNorm22
I0911 16:23:56.782732  9828 net.cpp:92] Creating Layer BatchNorm22
I0911 16:23:56.782734  9828 net.cpp:426] BatchNorm22 <- Convolution19
I0911 16:23:56.782739  9828 net.cpp:400] BatchNorm22 -> BatchNorm22
I0911 16:23:56.782886  9828 net.cpp:142] Setting up BatchNorm22
I0911 16:23:56.782891  9828 net.cpp:149] Top shape: 4 64 8 8 8 (131072)
I0911 16:23:56.782892  9828 net.cpp:157] Memory required for data: 3887726592
I0911 16:23:56.782897  9828 layer_factory.hpp:77] Creating layer Scale22
I0911 16:23:56.782902  9828 net.cpp:92] Creating Layer Scale22
I0911 16:23:56.782904  9828 net.cpp:426] Scale22 <- BatchNorm22
I0911 16:23:56.782908  9828 net.cpp:387] Scale22 -> BatchNorm22 (in-place)
I0911 16:23:56.782935  9828 layer_factory.hpp:77] Creating layer Scale22
I0911 16:23:56.783010  9828 net.cpp:142] Setting up Scale22
I0911 16:23:56.783015  9828 net.cpp:149] Top shape: 4 64 8 8 8 (131072)
I0911 16:23:56.783016  9828 net.cpp:157] Memory required for data: 3888250880
I0911 16:23:56.783020  9828 layer_factory.hpp:77] Creating layer ReLU22
I0911 16:23:56.783025  9828 net.cpp:92] Creating Layer ReLU22
I0911 16:23:56.783026  9828 net.cpp:426] ReLU22 <- BatchNorm22
I0911 16:23:56.783030  9828 net.cpp:387] ReLU22 -> BatchNorm22 (in-place)
I0911 16:23:56.783313  9828 net.cpp:142] Setting up ReLU22
I0911 16:23:56.783319  9828 net.cpp:149] Top shape: 4 64 8 8 8 (131072)
I0911 16:23:56.783321  9828 net.cpp:157] Memory required for data: 3888775168
I0911 16:23:56.783324  9828 layer_factory.hpp:77] Creating layer Convolution20
I0911 16:23:56.783329  9828 net.cpp:92] Creating Layer Convolution20
I0911 16:23:56.783332  9828 net.cpp:426] Convolution20 <- BatchNorm22
I0911 16:23:56.783337  9828 net.cpp:400] Convolution20 -> Convolution20
I0911 16:23:56.784615  9828 net.cpp:142] Setting up Convolution20
I0911 16:23:56.784622  9828 net.cpp:149] Top shape: 4 16 8 8 8 (32768)
I0911 16:23:56.784624  9828 net.cpp:157] Memory required for data: 3888906240
I0911 16:23:56.784628  9828 layer_factory.hpp:77] Creating layer Dropout9
I0911 16:23:56.784632  9828 net.cpp:92] Creating Layer Dropout9
I0911 16:23:56.784636  9828 net.cpp:426] Dropout9 <- Convolution20
I0911 16:23:56.784639  9828 net.cpp:400] Dropout9 -> Dropout9
I0911 16:23:56.784667  9828 net.cpp:142] Setting up Dropout9
I0911 16:23:56.784670  9828 net.cpp:149] Top shape: 4 16 8 8 8 (32768)
I0911 16:23:56.784672  9828 net.cpp:157] Memory required for data: 3889037312
I0911 16:23:56.784675  9828 layer_factory.hpp:77] Creating layer Concat_11
I0911 16:23:56.784679  9828 net.cpp:92] Creating Layer Concat_11
I0911 16:23:56.784682  9828 net.cpp:426] Concat_11 <- Conv_down_10_Conv_down_10_0_split_1
I0911 16:23:56.784685  9828 net.cpp:426] Concat_11 <- Dropout9
I0911 16:23:56.784689  9828 net.cpp:400] Concat_11 -> Concat_11
I0911 16:23:56.784704  9828 net.cpp:142] Setting up Concat_11
I0911 16:23:56.784714  9828 net.cpp:149] Top shape: 4 72 8 8 8 (147456)
I0911 16:23:56.784716  9828 net.cpp:157] Memory required for data: 3889627136
I0911 16:23:56.784719  9828 layer_factory.hpp:77] Creating layer Concat_11_Concat_11_0_split
I0911 16:23:56.784723  9828 net.cpp:92] Creating Layer Concat_11_Concat_11_0_split
I0911 16:23:56.784725  9828 net.cpp:426] Concat_11_Concat_11_0_split <- Concat_11
I0911 16:23:56.784729  9828 net.cpp:400] Concat_11_Concat_11_0_split -> Concat_11_Concat_11_0_split_0
I0911 16:23:56.784732  9828 net.cpp:400] Concat_11_Concat_11_0_split -> Concat_11_Concat_11_0_split_1
I0911 16:23:56.784762  9828 net.cpp:142] Setting up Concat_11_Concat_11_0_split
I0911 16:23:56.784766  9828 net.cpp:149] Top shape: 4 72 8 8 8 (147456)
I0911 16:23:56.784770  9828 net.cpp:149] Top shape: 4 72 8 8 8 (147456)
I0911 16:23:56.784771  9828 net.cpp:157] Memory required for data: 3890806784
I0911 16:23:56.784773  9828 layer_factory.hpp:77] Creating layer BatchNorm23
I0911 16:23:56.784777  9828 net.cpp:92] Creating Layer BatchNorm23
I0911 16:23:56.784780  9828 net.cpp:426] BatchNorm23 <- Concat_11_Concat_11_0_split_0
I0911 16:23:56.784783  9828 net.cpp:400] BatchNorm23 -> BatchNorm23
I0911 16:23:56.784924  9828 net.cpp:142] Setting up BatchNorm23
I0911 16:23:56.784927  9828 net.cpp:149] Top shape: 4 72 8 8 8 (147456)
I0911 16:23:56.784929  9828 net.cpp:157] Memory required for data: 3891396608
I0911 16:23:56.784934  9828 layer_factory.hpp:77] Creating layer Scale23
I0911 16:23:56.784939  9828 net.cpp:92] Creating Layer Scale23
I0911 16:23:56.784940  9828 net.cpp:426] Scale23 <- BatchNorm23
I0911 16:23:56.784945  9828 net.cpp:387] Scale23 -> BatchNorm23 (in-place)
I0911 16:23:56.784971  9828 layer_factory.hpp:77] Creating layer Scale23
I0911 16:23:56.785048  9828 net.cpp:142] Setting up Scale23
I0911 16:23:56.785053  9828 net.cpp:149] Top shape: 4 72 8 8 8 (147456)
I0911 16:23:56.785054  9828 net.cpp:157] Memory required for data: 3891986432
I0911 16:23:56.785058  9828 layer_factory.hpp:77] Creating layer ReLU23
I0911 16:23:56.785063  9828 net.cpp:92] Creating Layer ReLU23
I0911 16:23:56.785064  9828 net.cpp:426] ReLU23 <- BatchNorm23
I0911 16:23:56.785068  9828 net.cpp:387] ReLU23 -> BatchNorm23 (in-place)
I0911 16:23:56.785356  9828 net.cpp:142] Setting up ReLU23
I0911 16:23:56.785362  9828 net.cpp:149] Top shape: 4 72 8 8 8 (147456)
I0911 16:23:56.785364  9828 net.cpp:157] Memory required for data: 3892576256
I0911 16:23:56.785367  9828 layer_factory.hpp:77] Creating layer Convolution21
I0911 16:23:56.785373  9828 net.cpp:92] Creating Layer Convolution21
I0911 16:23:56.785377  9828 net.cpp:426] Convolution21 <- BatchNorm23
I0911 16:23:56.785382  9828 net.cpp:400] Convolution21 -> Convolution21
I0911 16:23:56.786270  9828 net.cpp:142] Setting up Convolution21
I0911 16:23:56.786284  9828 net.cpp:149] Top shape: 4 64 8 8 8 (131072)
I0911 16:23:56.786289  9828 net.cpp:157] Memory required for data: 3893100544
I0911 16:23:56.786296  9828 layer_factory.hpp:77] Creating layer BatchNorm24
I0911 16:23:56.786306  9828 net.cpp:92] Creating Layer BatchNorm24
I0911 16:23:56.786311  9828 net.cpp:426] BatchNorm24 <- Convolution21
I0911 16:23:56.786319  9828 net.cpp:400] BatchNorm24 -> BatchNorm24
I0911 16:23:56.786741  9828 net.cpp:142] Setting up BatchNorm24
I0911 16:23:56.786747  9828 net.cpp:149] Top shape: 4 64 8 8 8 (131072)
I0911 16:23:56.786765  9828 net.cpp:157] Memory required for data: 3893624832
I0911 16:23:56.786775  9828 layer_factory.hpp:77] Creating layer Scale24
I0911 16:23:56.786783  9828 net.cpp:92] Creating Layer Scale24
I0911 16:23:56.786789  9828 net.cpp:426] Scale24 <- BatchNorm24
I0911 16:23:56.786797  9828 net.cpp:387] Scale24 -> BatchNorm24 (in-place)
I0911 16:23:56.786861  9828 layer_factory.hpp:77] Creating layer Scale24
I0911 16:23:56.787019  9828 net.cpp:142] Setting up Scale24
I0911 16:23:56.787027  9828 net.cpp:149] Top shape: 4 64 8 8 8 (131072)
I0911 16:23:56.787031  9828 net.cpp:157] Memory required for data: 3894149120
I0911 16:23:56.787039  9828 layer_factory.hpp:77] Creating layer ReLU24
I0911 16:23:56.787057  9828 net.cpp:92] Creating Layer ReLU24
I0911 16:23:56.787063  9828 net.cpp:426] ReLU24 <- BatchNorm24
I0911 16:23:56.787083  9828 net.cpp:387] ReLU24 -> BatchNorm24 (in-place)
I0911 16:23:56.787389  9828 net.cpp:142] Setting up ReLU24
I0911 16:23:56.787398  9828 net.cpp:149] Top shape: 4 64 8 8 8 (131072)
I0911 16:23:56.787403  9828 net.cpp:157] Memory required for data: 3894673408
I0911 16:23:56.787410  9828 layer_factory.hpp:77] Creating layer Convolution22
I0911 16:23:56.787421  9828 net.cpp:92] Creating Layer Convolution22
I0911 16:23:56.787426  9828 net.cpp:426] Convolution22 <- BatchNorm24
I0911 16:23:56.787437  9828 net.cpp:400] Convolution22 -> Convolution22
I0911 16:23:56.789680  9828 net.cpp:142] Setting up Convolution22
I0911 16:23:56.789692  9828 net.cpp:149] Top shape: 4 16 8 8 8 (32768)
I0911 16:23:56.789695  9828 net.cpp:157] Memory required for data: 3894804480
I0911 16:23:56.789700  9828 layer_factory.hpp:77] Creating layer Dropout10
I0911 16:23:56.789705  9828 net.cpp:92] Creating Layer Dropout10
I0911 16:23:56.789708  9828 net.cpp:426] Dropout10 <- Convolution22
I0911 16:23:56.789712  9828 net.cpp:400] Dropout10 -> Dropout10
I0911 16:23:56.789758  9828 net.cpp:142] Setting up Dropout10
I0911 16:23:56.789762  9828 net.cpp:149] Top shape: 4 16 8 8 8 (32768)
I0911 16:23:56.789764  9828 net.cpp:157] Memory required for data: 3894935552
I0911 16:23:56.789767  9828 layer_factory.hpp:77] Creating layer Concat_12
I0911 16:23:56.789770  9828 net.cpp:92] Creating Layer Concat_12
I0911 16:23:56.789773  9828 net.cpp:426] Concat_12 <- Concat_11_Concat_11_0_split_1
I0911 16:23:56.789777  9828 net.cpp:426] Concat_12 <- Dropout10
I0911 16:23:56.789780  9828 net.cpp:400] Concat_12 -> Concat_12
I0911 16:23:56.789796  9828 net.cpp:142] Setting up Concat_12
I0911 16:23:56.789801  9828 net.cpp:149] Top shape: 4 88 8 8 8 (180224)
I0911 16:23:56.789803  9828 net.cpp:157] Memory required for data: 3895656448
I0911 16:23:56.789805  9828 layer_factory.hpp:77] Creating layer Concat_12_Concat_12_0_split
I0911 16:23:56.789809  9828 net.cpp:92] Creating Layer Concat_12_Concat_12_0_split
I0911 16:23:56.789813  9828 net.cpp:426] Concat_12_Concat_12_0_split <- Concat_12
I0911 16:23:56.789815  9828 net.cpp:400] Concat_12_Concat_12_0_split -> Concat_12_Concat_12_0_split_0
I0911 16:23:56.789819  9828 net.cpp:400] Concat_12_Concat_12_0_split -> Concat_12_Concat_12_0_split_1
I0911 16:23:56.789845  9828 net.cpp:142] Setting up Concat_12_Concat_12_0_split
I0911 16:23:56.789849  9828 net.cpp:149] Top shape: 4 88 8 8 8 (180224)
I0911 16:23:56.789851  9828 net.cpp:149] Top shape: 4 88 8 8 8 (180224)
I0911 16:23:56.789854  9828 net.cpp:157] Memory required for data: 3897098240
I0911 16:23:56.789855  9828 layer_factory.hpp:77] Creating layer BatchNorm25
I0911 16:23:56.789861  9828 net.cpp:92] Creating Layer BatchNorm25
I0911 16:23:56.789863  9828 net.cpp:426] BatchNorm25 <- Concat_12_Concat_12_0_split_0
I0911 16:23:56.789868  9828 net.cpp:400] BatchNorm25 -> BatchNorm25
I0911 16:23:56.790017  9828 net.cpp:142] Setting up BatchNorm25
I0911 16:23:56.790021  9828 net.cpp:149] Top shape: 4 88 8 8 8 (180224)
I0911 16:23:56.790024  9828 net.cpp:157] Memory required for data: 3897819136
I0911 16:23:56.790029  9828 layer_factory.hpp:77] Creating layer Scale25
I0911 16:23:56.790032  9828 net.cpp:92] Creating Layer Scale25
I0911 16:23:56.790035  9828 net.cpp:426] Scale25 <- BatchNorm25
I0911 16:23:56.790038  9828 net.cpp:387] Scale25 -> BatchNorm25 (in-place)
I0911 16:23:56.790066  9828 layer_factory.hpp:77] Creating layer Scale25
I0911 16:23:56.790143  9828 net.cpp:142] Setting up Scale25
I0911 16:23:56.790148  9828 net.cpp:149] Top shape: 4 88 8 8 8 (180224)
I0911 16:23:56.790150  9828 net.cpp:157] Memory required for data: 3898540032
I0911 16:23:56.790153  9828 layer_factory.hpp:77] Creating layer ReLU25
I0911 16:23:56.790158  9828 net.cpp:92] Creating Layer ReLU25
I0911 16:23:56.790159  9828 net.cpp:426] ReLU25 <- BatchNorm25
I0911 16:23:56.790163  9828 net.cpp:387] ReLU25 -> BatchNorm25 (in-place)
I0911 16:23:56.790284  9828 net.cpp:142] Setting up ReLU25
I0911 16:23:56.790298  9828 net.cpp:149] Top shape: 4 88 8 8 8 (180224)
I0911 16:23:56.790302  9828 net.cpp:157] Memory required for data: 3899260928
I0911 16:23:56.790303  9828 layer_factory.hpp:77] Creating layer Convolution23
I0911 16:23:56.790309  9828 net.cpp:92] Creating Layer Convolution23
I0911 16:23:56.790313  9828 net.cpp:426] Convolution23 <- BatchNorm25
I0911 16:23:56.790318  9828 net.cpp:400] Convolution23 -> Convolution23
I0911 16:23:56.791283  9828 net.cpp:142] Setting up Convolution23
I0911 16:23:56.791292  9828 net.cpp:149] Top shape: 4 64 8 8 8 (131072)
I0911 16:23:56.791296  9828 net.cpp:157] Memory required for data: 3899785216
I0911 16:23:56.791299  9828 layer_factory.hpp:77] Creating layer BatchNorm26
I0911 16:23:56.791306  9828 net.cpp:92] Creating Layer BatchNorm26
I0911 16:23:56.791309  9828 net.cpp:426] BatchNorm26 <- Convolution23
I0911 16:23:56.791314  9828 net.cpp:400] BatchNorm26 -> BatchNorm26
I0911 16:23:56.791471  9828 net.cpp:142] Setting up BatchNorm26
I0911 16:23:56.791476  9828 net.cpp:149] Top shape: 4 64 8 8 8 (131072)
I0911 16:23:56.791477  9828 net.cpp:157] Memory required for data: 3900309504
I0911 16:23:56.791482  9828 layer_factory.hpp:77] Creating layer Scale26
I0911 16:23:56.791487  9828 net.cpp:92] Creating Layer Scale26
I0911 16:23:56.791489  9828 net.cpp:426] Scale26 <- BatchNorm26
I0911 16:23:56.791493  9828 net.cpp:387] Scale26 -> BatchNorm26 (in-place)
I0911 16:23:56.791523  9828 layer_factory.hpp:77] Creating layer Scale26
I0911 16:23:56.791602  9828 net.cpp:142] Setting up Scale26
I0911 16:23:56.791606  9828 net.cpp:149] Top shape: 4 64 8 8 8 (131072)
I0911 16:23:56.791609  9828 net.cpp:157] Memory required for data: 3900833792
I0911 16:23:56.791613  9828 layer_factory.hpp:77] Creating layer ReLU26
I0911 16:23:56.791616  9828 net.cpp:92] Creating Layer ReLU26
I0911 16:23:56.791620  9828 net.cpp:426] ReLU26 <- BatchNorm26
I0911 16:23:56.791622  9828 net.cpp:387] ReLU26 -> BatchNorm26 (in-place)
I0911 16:23:56.791744  9828 net.cpp:142] Setting up ReLU26
I0911 16:23:56.791750  9828 net.cpp:149] Top shape: 4 64 8 8 8 (131072)
I0911 16:23:56.791752  9828 net.cpp:157] Memory required for data: 3901358080
I0911 16:23:56.791755  9828 layer_factory.hpp:77] Creating layer Convolution24
I0911 16:23:56.791761  9828 net.cpp:92] Creating Layer Convolution24
I0911 16:23:56.791764  9828 net.cpp:426] Convolution24 <- BatchNorm26
I0911 16:23:56.791769  9828 net.cpp:400] Convolution24 -> Convolution24
I0911 16:23:56.793136  9828 net.cpp:142] Setting up Convolution24
I0911 16:23:56.793144  9828 net.cpp:149] Top shape: 4 16 8 8 8 (32768)
I0911 16:23:56.793148  9828 net.cpp:157] Memory required for data: 3901489152
I0911 16:23:56.793151  9828 layer_factory.hpp:77] Creating layer Dropout11
I0911 16:23:56.793155  9828 net.cpp:92] Creating Layer Dropout11
I0911 16:23:56.793159  9828 net.cpp:426] Dropout11 <- Convolution24
I0911 16:23:56.793164  9828 net.cpp:400] Dropout11 -> Dropout11
I0911 16:23:56.793191  9828 net.cpp:142] Setting up Dropout11
I0911 16:23:56.793195  9828 net.cpp:149] Top shape: 4 16 8 8 8 (32768)
I0911 16:23:56.793197  9828 net.cpp:157] Memory required for data: 3901620224
I0911 16:23:56.793200  9828 layer_factory.hpp:77] Creating layer Concat_13
I0911 16:23:56.793205  9828 net.cpp:92] Creating Layer Concat_13
I0911 16:23:56.793206  9828 net.cpp:426] Concat_13 <- Concat_12_Concat_12_0_split_1
I0911 16:23:56.793210  9828 net.cpp:426] Concat_13 <- Dropout11
I0911 16:23:56.793213  9828 net.cpp:400] Concat_13 -> Concat_13
I0911 16:23:56.793231  9828 net.cpp:142] Setting up Concat_13
I0911 16:23:56.793234  9828 net.cpp:149] Top shape: 4 104 8 8 8 (212992)
I0911 16:23:56.793236  9828 net.cpp:157] Memory required for data: 3902472192
I0911 16:23:56.793238  9828 layer_factory.hpp:77] Creating layer Concat_13_Concat_13_0_split
I0911 16:23:56.793241  9828 net.cpp:92] Creating Layer Concat_13_Concat_13_0_split
I0911 16:23:56.793244  9828 net.cpp:426] Concat_13_Concat_13_0_split <- Concat_13
I0911 16:23:56.793248  9828 net.cpp:400] Concat_13_Concat_13_0_split -> Concat_13_Concat_13_0_split_0
I0911 16:23:56.793262  9828 net.cpp:400] Concat_13_Concat_13_0_split -> Concat_13_Concat_13_0_split_1
I0911 16:23:56.793289  9828 net.cpp:142] Setting up Concat_13_Concat_13_0_split
I0911 16:23:56.793293  9828 net.cpp:149] Top shape: 4 104 8 8 8 (212992)
I0911 16:23:56.793296  9828 net.cpp:149] Top shape: 4 104 8 8 8 (212992)
I0911 16:23:56.793298  9828 net.cpp:157] Memory required for data: 3904176128
I0911 16:23:56.793300  9828 layer_factory.hpp:77] Creating layer BatchNorm27
I0911 16:23:56.793305  9828 net.cpp:92] Creating Layer BatchNorm27
I0911 16:23:56.793308  9828 net.cpp:426] BatchNorm27 <- Concat_13_Concat_13_0_split_0
I0911 16:23:56.793313  9828 net.cpp:400] BatchNorm27 -> BatchNorm27
I0911 16:23:56.793457  9828 net.cpp:142] Setting up BatchNorm27
I0911 16:23:56.793460  9828 net.cpp:149] Top shape: 4 104 8 8 8 (212992)
I0911 16:23:56.793462  9828 net.cpp:157] Memory required for data: 3905028096
I0911 16:23:56.793467  9828 layer_factory.hpp:77] Creating layer Scale27
I0911 16:23:56.793470  9828 net.cpp:92] Creating Layer Scale27
I0911 16:23:56.793473  9828 net.cpp:426] Scale27 <- BatchNorm27
I0911 16:23:56.793478  9828 net.cpp:387] Scale27 -> BatchNorm27 (in-place)
I0911 16:23:56.793505  9828 layer_factory.hpp:77] Creating layer Scale27
I0911 16:23:56.793581  9828 net.cpp:142] Setting up Scale27
I0911 16:23:56.793584  9828 net.cpp:149] Top shape: 4 104 8 8 8 (212992)
I0911 16:23:56.793587  9828 net.cpp:157] Memory required for data: 3905880064
I0911 16:23:56.793591  9828 layer_factory.hpp:77] Creating layer ReLU27
I0911 16:23:56.793594  9828 net.cpp:92] Creating Layer ReLU27
I0911 16:23:56.793596  9828 net.cpp:426] ReLU27 <- BatchNorm27
I0911 16:23:56.793599  9828 net.cpp:387] ReLU27 -> BatchNorm27 (in-place)
I0911 16:23:56.793721  9828 net.cpp:142] Setting up ReLU27
I0911 16:23:56.793727  9828 net.cpp:149] Top shape: 4 104 8 8 8 (212992)
I0911 16:23:56.793730  9828 net.cpp:157] Memory required for data: 3906732032
I0911 16:23:56.793731  9828 layer_factory.hpp:77] Creating layer Convolution25
I0911 16:23:56.793737  9828 net.cpp:92] Creating Layer Convolution25
I0911 16:23:56.793740  9828 net.cpp:426] Convolution25 <- BatchNorm27
I0911 16:23:56.793745  9828 net.cpp:400] Convolution25 -> Convolution25
I0911 16:23:56.795150  9828 net.cpp:142] Setting up Convolution25
I0911 16:23:56.795159  9828 net.cpp:149] Top shape: 4 64 8 8 8 (131072)
I0911 16:23:56.795161  9828 net.cpp:157] Memory required for data: 3907256320
I0911 16:23:56.795166  9828 layer_factory.hpp:77] Creating layer BatchNorm28
I0911 16:23:56.795171  9828 net.cpp:92] Creating Layer BatchNorm28
I0911 16:23:56.795173  9828 net.cpp:426] BatchNorm28 <- Convolution25
I0911 16:23:56.795178  9828 net.cpp:400] BatchNorm28 -> BatchNorm28
I0911 16:23:56.795325  9828 net.cpp:142] Setting up BatchNorm28
I0911 16:23:56.795328  9828 net.cpp:149] Top shape: 4 64 8 8 8 (131072)
I0911 16:23:56.795331  9828 net.cpp:157] Memory required for data: 3907780608
I0911 16:23:56.795336  9828 layer_factory.hpp:77] Creating layer Scale28
I0911 16:23:56.795339  9828 net.cpp:92] Creating Layer Scale28
I0911 16:23:56.795341  9828 net.cpp:426] Scale28 <- BatchNorm28
I0911 16:23:56.795344  9828 net.cpp:387] Scale28 -> BatchNorm28 (in-place)
I0911 16:23:56.795372  9828 layer_factory.hpp:77] Creating layer Scale28
I0911 16:23:56.795445  9828 net.cpp:142] Setting up Scale28
I0911 16:23:56.795449  9828 net.cpp:149] Top shape: 4 64 8 8 8 (131072)
I0911 16:23:56.795451  9828 net.cpp:157] Memory required for data: 3908304896
I0911 16:23:56.795455  9828 layer_factory.hpp:77] Creating layer ReLU28
I0911 16:23:56.795459  9828 net.cpp:92] Creating Layer ReLU28
I0911 16:23:56.795461  9828 net.cpp:426] ReLU28 <- BatchNorm28
I0911 16:23:56.795464  9828 net.cpp:387] ReLU28 -> BatchNorm28 (in-place)
I0911 16:23:56.795770  9828 net.cpp:142] Setting up ReLU28
I0911 16:23:56.795778  9828 net.cpp:149] Top shape: 4 64 8 8 8 (131072)
I0911 16:23:56.795780  9828 net.cpp:157] Memory required for data: 3908829184
I0911 16:23:56.795783  9828 layer_factory.hpp:77] Creating layer Convolution26
I0911 16:23:56.795811  9828 net.cpp:92] Creating Layer Convolution26
I0911 16:23:56.795815  9828 net.cpp:426] Convolution26 <- BatchNorm28
I0911 16:23:56.795831  9828 net.cpp:400] Convolution26 -> Convolution26
I0911 16:23:56.796841  9828 net.cpp:142] Setting up Convolution26
I0911 16:23:56.796849  9828 net.cpp:149] Top shape: 4 16 8 8 8 (32768)
I0911 16:23:56.796864  9828 net.cpp:157] Memory required for data: 3908960256
I0911 16:23:56.796867  9828 layer_factory.hpp:77] Creating layer Dropout12
I0911 16:23:56.796885  9828 net.cpp:92] Creating Layer Dropout12
I0911 16:23:56.796886  9828 net.cpp:426] Dropout12 <- Convolution26
I0911 16:23:56.796891  9828 net.cpp:400] Dropout12 -> Dropout12
I0911 16:23:56.796919  9828 net.cpp:142] Setting up Dropout12
I0911 16:23:56.796923  9828 net.cpp:149] Top shape: 4 16 8 8 8 (32768)
I0911 16:23:56.796926  9828 net.cpp:157] Memory required for data: 3909091328
I0911 16:23:56.796927  9828 layer_factory.hpp:77] Creating layer Concat_14
I0911 16:23:56.796947  9828 net.cpp:92] Creating Layer Concat_14
I0911 16:23:56.796949  9828 net.cpp:426] Concat_14 <- Concat_13_Concat_13_0_split_1
I0911 16:23:56.796952  9828 net.cpp:426] Concat_14 <- Dropout12
I0911 16:23:56.796969  9828 net.cpp:400] Concat_14 -> Concat_14
I0911 16:23:56.796985  9828 net.cpp:142] Setting up Concat_14
I0911 16:23:56.796989  9828 net.cpp:149] Top shape: 4 120 8 8 8 (245760)
I0911 16:23:56.796991  9828 net.cpp:157] Memory required for data: 3910074368
I0911 16:23:56.796993  9828 layer_factory.hpp:77] Creating layer Concat_14_Concat_14_0_split
I0911 16:23:56.796998  9828 net.cpp:92] Creating Layer Concat_14_Concat_14_0_split
I0911 16:23:56.796999  9828 net.cpp:426] Concat_14_Concat_14_0_split <- Concat_14
I0911 16:23:56.797003  9828 net.cpp:400] Concat_14_Concat_14_0_split -> Concat_14_Concat_14_0_split_0
I0911 16:23:56.797008  9828 net.cpp:400] Concat_14_Concat_14_0_split -> Concat_14_Concat_14_0_split_1
I0911 16:23:56.797032  9828 net.cpp:142] Setting up Concat_14_Concat_14_0_split
I0911 16:23:56.797036  9828 net.cpp:149] Top shape: 4 120 8 8 8 (245760)
I0911 16:23:56.797053  9828 net.cpp:149] Top shape: 4 120 8 8 8 (245760)
I0911 16:23:56.797055  9828 net.cpp:157] Memory required for data: 3912040448
I0911 16:23:56.797057  9828 layer_factory.hpp:77] Creating layer Deconvolution_15
I0911 16:23:56.797065  9828 net.cpp:92] Creating Layer Deconvolution_15
I0911 16:23:56.797066  9828 net.cpp:426] Deconvolution_15 <- Concat_14_Concat_14_0_split_0
I0911 16:23:56.797071  9828 net.cpp:400] Deconvolution_15 -> Deconvolution_15
I0911 16:23:56.806437  9828 net.cpp:142] Setting up Deconvolution_15
I0911 16:23:56.806455  9828 net.cpp:149] Top shape: 4 4 64 64 64 (4194304)
I0911 16:23:56.806458  9828 net.cpp:157] Memory required for data: 3928817664
I0911 16:23:56.806464  9828 layer_factory.hpp:77] Creating layer BatchNorm29
I0911 16:23:56.806473  9828 net.cpp:92] Creating Layer BatchNorm29
I0911 16:23:56.806478  9828 net.cpp:426] BatchNorm29 <- Concat_14_Concat_14_0_split_1
I0911 16:23:56.806483  9828 net.cpp:400] BatchNorm29 -> BatchNorm29
I0911 16:23:56.806658  9828 net.cpp:142] Setting up BatchNorm29
I0911 16:23:56.806663  9828 net.cpp:149] Top shape: 4 120 8 8 8 (245760)
I0911 16:23:56.806664  9828 net.cpp:157] Memory required for data: 3929800704
I0911 16:23:56.806669  9828 layer_factory.hpp:77] Creating layer Scale29
I0911 16:23:56.806676  9828 net.cpp:92] Creating Layer Scale29
I0911 16:23:56.806679  9828 net.cpp:426] Scale29 <- BatchNorm29
I0911 16:23:56.806682  9828 net.cpp:387] Scale29 -> BatchNorm29 (in-place)
I0911 16:23:56.806715  9828 layer_factory.hpp:77] Creating layer Scale29
I0911 16:23:56.806813  9828 net.cpp:142] Setting up Scale29
I0911 16:23:56.806818  9828 net.cpp:149] Top shape: 4 120 8 8 8 (245760)
I0911 16:23:56.806820  9828 net.cpp:157] Memory required for data: 3930783744
I0911 16:23:56.806824  9828 layer_factory.hpp:77] Creating layer ReLU29
I0911 16:23:56.806828  9828 net.cpp:92] Creating Layer ReLU29
I0911 16:23:56.806831  9828 net.cpp:426] ReLU29 <- BatchNorm29
I0911 16:23:56.806849  9828 net.cpp:387] ReLU29 -> BatchNorm29 (in-place)
I0911 16:23:56.807006  9828 net.cpp:142] Setting up ReLU29
I0911 16:23:56.807025  9828 net.cpp:149] Top shape: 4 120 8 8 8 (245760)
I0911 16:23:56.807029  9828 net.cpp:157] Memory required for data: 3931766784
I0911 16:23:56.807030  9828 layer_factory.hpp:77] Creating layer Convolution27
I0911 16:23:56.807037  9828 net.cpp:92] Creating Layer Convolution27
I0911 16:23:56.807040  9828 net.cpp:426] Convolution27 <- BatchNorm29
I0911 16:23:56.807046  9828 net.cpp:400] Convolution27 -> Convolution27
I0911 16:23:56.808076  9828 net.cpp:142] Setting up Convolution27
I0911 16:23:56.808084  9828 net.cpp:149] Top shape: 4 60 8 8 8 (122880)
I0911 16:23:56.808087  9828 net.cpp:157] Memory required for data: 3932258304
I0911 16:23:56.808091  9828 layer_factory.hpp:77] Creating layer BatchNorm30
I0911 16:23:56.808099  9828 net.cpp:92] Creating Layer BatchNorm30
I0911 16:23:56.808101  9828 net.cpp:426] BatchNorm30 <- Convolution27
I0911 16:23:56.808105  9828 net.cpp:400] BatchNorm30 -> BatchNorm30
I0911 16:23:56.808274  9828 net.cpp:142] Setting up BatchNorm30
I0911 16:23:56.808279  9828 net.cpp:149] Top shape: 4 60 8 8 8 (122880)
I0911 16:23:56.808280  9828 net.cpp:157] Memory required for data: 3932749824
I0911 16:23:56.808285  9828 layer_factory.hpp:77] Creating layer Scale30
I0911 16:23:56.808290  9828 net.cpp:92] Creating Layer Scale30
I0911 16:23:56.808293  9828 net.cpp:426] Scale30 <- BatchNorm30
I0911 16:23:56.808297  9828 net.cpp:387] Scale30 -> BatchNorm30 (in-place)
I0911 16:23:56.808328  9828 layer_factory.hpp:77] Creating layer Scale30
I0911 16:23:56.808413  9828 net.cpp:142] Setting up Scale30
I0911 16:23:56.808416  9828 net.cpp:149] Top shape: 4 60 8 8 8 (122880)
I0911 16:23:56.808418  9828 net.cpp:157] Memory required for data: 3933241344
I0911 16:23:56.808423  9828 layer_factory.hpp:77] Creating layer ReLU30
I0911 16:23:56.808426  9828 net.cpp:92] Creating Layer ReLU30
I0911 16:23:56.808429  9828 net.cpp:426] ReLU30 <- BatchNorm30
I0911 16:23:56.808434  9828 net.cpp:387] ReLU30 -> BatchNorm30 (in-place)
I0911 16:23:56.808569  9828 net.cpp:142] Setting up ReLU30
I0911 16:23:56.808576  9828 net.cpp:149] Top shape: 4 60 8 8 8 (122880)
I0911 16:23:56.808579  9828 net.cpp:157] Memory required for data: 3933732864
I0911 16:23:56.808583  9828 layer_factory.hpp:77] Creating layer Conv_down_15
I0911 16:23:56.808588  9828 net.cpp:92] Creating Layer Conv_down_15
I0911 16:23:56.808591  9828 net.cpp:426] Conv_down_15 <- BatchNorm30
I0911 16:23:56.808596  9828 net.cpp:400] Conv_down_15 -> Conv_down_15
I0911 16:23:56.809852  9828 net.cpp:142] Setting up Conv_down_15
I0911 16:23:56.809860  9828 net.cpp:149] Top shape: 4 60 4 4 4 (15360)
I0911 16:23:56.809864  9828 net.cpp:157] Memory required for data: 3933794304
I0911 16:23:56.809867  9828 layer_factory.hpp:77] Creating layer Conv_down_15_Conv_down_15_0_split
I0911 16:23:56.809871  9828 net.cpp:92] Creating Layer Conv_down_15_Conv_down_15_0_split
I0911 16:23:56.809875  9828 net.cpp:426] Conv_down_15_Conv_down_15_0_split <- Conv_down_15
I0911 16:23:56.809880  9828 net.cpp:400] Conv_down_15_Conv_down_15_0_split -> Conv_down_15_Conv_down_15_0_split_0
I0911 16:23:56.809896  9828 net.cpp:400] Conv_down_15_Conv_down_15_0_split -> Conv_down_15_Conv_down_15_0_split_1
I0911 16:23:56.809927  9828 net.cpp:142] Setting up Conv_down_15_Conv_down_15_0_split
I0911 16:23:56.809932  9828 net.cpp:149] Top shape: 4 60 4 4 4 (15360)
I0911 16:23:56.809936  9828 net.cpp:149] Top shape: 4 60 4 4 4 (15360)
I0911 16:23:56.809937  9828 net.cpp:157] Memory required for data: 3933917184
I0911 16:23:56.809940  9828 layer_factory.hpp:77] Creating layer BatchNorm31
I0911 16:23:56.809944  9828 net.cpp:92] Creating Layer BatchNorm31
I0911 16:23:56.809947  9828 net.cpp:426] BatchNorm31 <- Conv_down_15_Conv_down_15_0_split_0
I0911 16:23:56.809952  9828 net.cpp:400] BatchNorm31 -> BatchNorm31
I0911 16:23:56.810117  9828 net.cpp:142] Setting up BatchNorm31
I0911 16:23:56.810120  9828 net.cpp:149] Top shape: 4 60 4 4 4 (15360)
I0911 16:23:56.810123  9828 net.cpp:157] Memory required for data: 3933978624
I0911 16:23:56.810137  9828 layer_factory.hpp:77] Creating layer Scale31
I0911 16:23:56.810142  9828 net.cpp:92] Creating Layer Scale31
I0911 16:23:56.810144  9828 net.cpp:426] Scale31 <- BatchNorm31
I0911 16:23:56.810148  9828 net.cpp:387] Scale31 -> BatchNorm31 (in-place)
I0911 16:23:56.810178  9828 layer_factory.hpp:77] Creating layer Scale31
I0911 16:23:56.810267  9828 net.cpp:142] Setting up Scale31
I0911 16:23:56.810271  9828 net.cpp:149] Top shape: 4 60 4 4 4 (15360)
I0911 16:23:56.810273  9828 net.cpp:157] Memory required for data: 3934040064
I0911 16:23:56.810277  9828 layer_factory.hpp:77] Creating layer ReLU31
I0911 16:23:56.810281  9828 net.cpp:92] Creating Layer ReLU31
I0911 16:23:56.810283  9828 net.cpp:426] ReLU31 <- BatchNorm31
I0911 16:23:56.810287  9828 net.cpp:387] ReLU31 -> BatchNorm31 (in-place)
I0911 16:23:56.810590  9828 net.cpp:142] Setting up ReLU31
I0911 16:23:56.810597  9828 net.cpp:149] Top shape: 4 60 4 4 4 (15360)
I0911 16:23:56.810600  9828 net.cpp:157] Memory required for data: 3934101504
I0911 16:23:56.810602  9828 layer_factory.hpp:77] Creating layer Convolution28
I0911 16:23:56.810608  9828 net.cpp:92] Creating Layer Convolution28
I0911 16:23:56.810612  9828 net.cpp:426] Convolution28 <- BatchNorm31
I0911 16:23:56.810617  9828 net.cpp:400] Convolution28 -> Convolution28
I0911 16:23:56.811403  9828 net.cpp:142] Setting up Convolution28
I0911 16:23:56.811410  9828 net.cpp:149] Top shape: 4 64 4 4 4 (16384)
I0911 16:23:56.811414  9828 net.cpp:157] Memory required for data: 3934167040
I0911 16:23:56.811417  9828 layer_factory.hpp:77] Creating layer BatchNorm32
I0911 16:23:56.811422  9828 net.cpp:92] Creating Layer BatchNorm32
I0911 16:23:56.811425  9828 net.cpp:426] BatchNorm32 <- Convolution28
I0911 16:23:56.811430  9828 net.cpp:400] BatchNorm32 -> BatchNorm32
I0911 16:23:56.811597  9828 net.cpp:142] Setting up BatchNorm32
I0911 16:23:56.811602  9828 net.cpp:149] Top shape: 4 64 4 4 4 (16384)
I0911 16:23:56.811604  9828 net.cpp:157] Memory required for data: 3934232576
I0911 16:23:56.811609  9828 layer_factory.hpp:77] Creating layer Scale32
I0911 16:23:56.811614  9828 net.cpp:92] Creating Layer Scale32
I0911 16:23:56.811616  9828 net.cpp:426] Scale32 <- BatchNorm32
I0911 16:23:56.811620  9828 net.cpp:387] Scale32 -> BatchNorm32 (in-place)
I0911 16:23:56.811664  9828 layer_factory.hpp:77] Creating layer Scale32
I0911 16:23:56.811750  9828 net.cpp:142] Setting up Scale32
I0911 16:23:56.811754  9828 net.cpp:149] Top shape: 4 64 4 4 4 (16384)
I0911 16:23:56.811756  9828 net.cpp:157] Memory required for data: 3934298112
I0911 16:23:56.811761  9828 layer_factory.hpp:77] Creating layer ReLU32
I0911 16:23:56.811765  9828 net.cpp:92] Creating Layer ReLU32
I0911 16:23:56.811767  9828 net.cpp:426] ReLU32 <- BatchNorm32
I0911 16:23:56.811770  9828 net.cpp:387] ReLU32 -> BatchNorm32 (in-place)
I0911 16:23:56.811887  9828 net.cpp:142] Setting up ReLU32
I0911 16:23:56.811893  9828 net.cpp:149] Top shape: 4 64 4 4 4 (16384)
I0911 16:23:56.811895  9828 net.cpp:157] Memory required for data: 3934363648
I0911 16:23:56.811897  9828 layer_factory.hpp:77] Creating layer Convolution29
I0911 16:23:56.811904  9828 net.cpp:92] Creating Layer Convolution29
I0911 16:23:56.811908  9828 net.cpp:426] Convolution29 <- BatchNorm32
I0911 16:23:56.811911  9828 net.cpp:400] Convolution29 -> Convolution29
I0911 16:23:56.813169  9828 net.cpp:142] Setting up Convolution29
I0911 16:23:56.813176  9828 net.cpp:149] Top shape: 4 16 4 4 4 (4096)
I0911 16:23:56.813179  9828 net.cpp:157] Memory required for data: 3934380032
I0911 16:23:56.813182  9828 layer_factory.hpp:77] Creating layer Dropout13
I0911 16:23:56.813187  9828 net.cpp:92] Creating Layer Dropout13
I0911 16:23:56.813189  9828 net.cpp:426] Dropout13 <- Convolution29
I0911 16:23:56.813194  9828 net.cpp:400] Dropout13 -> Dropout13
I0911 16:23:56.813225  9828 net.cpp:142] Setting up Dropout13
I0911 16:23:56.813230  9828 net.cpp:149] Top shape: 4 16 4 4 4 (4096)
I0911 16:23:56.813231  9828 net.cpp:157] Memory required for data: 3934396416
I0911 16:23:56.813239  9828 layer_factory.hpp:77] Creating layer Concat_19
I0911 16:23:56.813244  9828 net.cpp:92] Creating Layer Concat_19
I0911 16:23:56.813246  9828 net.cpp:426] Concat_19 <- Conv_down_15_Conv_down_15_0_split_1
I0911 16:23:56.813251  9828 net.cpp:426] Concat_19 <- Dropout13
I0911 16:23:56.813254  9828 net.cpp:400] Concat_19 -> Concat_19
I0911 16:23:56.813274  9828 net.cpp:142] Setting up Concat_19
I0911 16:23:56.813278  9828 net.cpp:149] Top shape: 4 76 4 4 4 (19456)
I0911 16:23:56.813280  9828 net.cpp:157] Memory required for data: 3934474240
I0911 16:23:56.813282  9828 layer_factory.hpp:77] Creating layer Concat_19_Concat_19_0_split
I0911 16:23:56.813285  9828 net.cpp:92] Creating Layer Concat_19_Concat_19_0_split
I0911 16:23:56.813288  9828 net.cpp:426] Concat_19_Concat_19_0_split <- Concat_19
I0911 16:23:56.813292  9828 net.cpp:400] Concat_19_Concat_19_0_split -> Concat_19_Concat_19_0_split_0
I0911 16:23:56.813297  9828 net.cpp:400] Concat_19_Concat_19_0_split -> Concat_19_Concat_19_0_split_1
I0911 16:23:56.813323  9828 net.cpp:142] Setting up Concat_19_Concat_19_0_split
I0911 16:23:56.813326  9828 net.cpp:149] Top shape: 4 76 4 4 4 (19456)
I0911 16:23:56.813329  9828 net.cpp:149] Top shape: 4 76 4 4 4 (19456)
I0911 16:23:56.813331  9828 net.cpp:157] Memory required for data: 3934629888
I0911 16:23:56.813333  9828 layer_factory.hpp:77] Creating layer BatchNorm33
I0911 16:23:56.813338  9828 net.cpp:92] Creating Layer BatchNorm33
I0911 16:23:56.813340  9828 net.cpp:426] BatchNorm33 <- Concat_19_Concat_19_0_split_0
I0911 16:23:56.813345  9828 net.cpp:400] BatchNorm33 -> BatchNorm33
I0911 16:23:56.813508  9828 net.cpp:142] Setting up BatchNorm33
I0911 16:23:56.813511  9828 net.cpp:149] Top shape: 4 76 4 4 4 (19456)
I0911 16:23:56.813513  9828 net.cpp:157] Memory required for data: 3934707712
I0911 16:23:56.813519  9828 layer_factory.hpp:77] Creating layer Scale33
I0911 16:23:56.813522  9828 net.cpp:92] Creating Layer Scale33
I0911 16:23:56.813524  9828 net.cpp:426] Scale33 <- BatchNorm33
I0911 16:23:56.813529  9828 net.cpp:387] Scale33 -> BatchNorm33 (in-place)
I0911 16:23:56.813558  9828 layer_factory.hpp:77] Creating layer Scale33
I0911 16:23:56.813647  9828 net.cpp:142] Setting up Scale33
I0911 16:23:56.813652  9828 net.cpp:149] Top shape: 4 76 4 4 4 (19456)
I0911 16:23:56.813654  9828 net.cpp:157] Memory required for data: 3934785536
I0911 16:23:56.813658  9828 layer_factory.hpp:77] Creating layer ReLU33
I0911 16:23:56.813661  9828 net.cpp:92] Creating Layer ReLU33
I0911 16:23:56.813664  9828 net.cpp:426] ReLU33 <- BatchNorm33
I0911 16:23:56.813668  9828 net.cpp:387] ReLU33 -> BatchNorm33 (in-place)
I0911 16:23:56.813788  9828 net.cpp:142] Setting up ReLU33
I0911 16:23:56.813793  9828 net.cpp:149] Top shape: 4 76 4 4 4 (19456)
I0911 16:23:56.813796  9828 net.cpp:157] Memory required for data: 3934863360
I0911 16:23:56.813798  9828 layer_factory.hpp:77] Creating layer Convolution30
I0911 16:23:56.813803  9828 net.cpp:92] Creating Layer Convolution30
I0911 16:23:56.813807  9828 net.cpp:426] Convolution30 <- BatchNorm33
I0911 16:23:56.813812  9828 net.cpp:400] Convolution30 -> Convolution30
I0911 16:23:56.814604  9828 net.cpp:142] Setting up Convolution30
I0911 16:23:56.814611  9828 net.cpp:149] Top shape: 4 64 4 4 4 (16384)
I0911 16:23:56.814615  9828 net.cpp:157] Memory required for data: 3934928896
I0911 16:23:56.814617  9828 layer_factory.hpp:77] Creating layer BatchNorm34
I0911 16:23:56.814623  9828 net.cpp:92] Creating Layer BatchNorm34
I0911 16:23:56.814626  9828 net.cpp:426] BatchNorm34 <- Convolution30
I0911 16:23:56.814630  9828 net.cpp:400] BatchNorm34 -> BatchNorm34
I0911 16:23:56.814810  9828 net.cpp:142] Setting up BatchNorm34
I0911 16:23:56.814815  9828 net.cpp:149] Top shape: 4 64 4 4 4 (16384)
I0911 16:23:56.814817  9828 net.cpp:157] Memory required for data: 3934994432
I0911 16:23:56.814822  9828 layer_factory.hpp:77] Creating layer Scale34
I0911 16:23:56.814827  9828 net.cpp:92] Creating Layer Scale34
I0911 16:23:56.814831  9828 net.cpp:426] Scale34 <- BatchNorm34
I0911 16:23:56.814833  9828 net.cpp:387] Scale34 -> BatchNorm34 (in-place)
I0911 16:23:56.814873  9828 layer_factory.hpp:77] Creating layer Scale34
I0911 16:23:56.814962  9828 net.cpp:142] Setting up Scale34
I0911 16:23:56.814967  9828 net.cpp:149] Top shape: 4 64 4 4 4 (16384)
I0911 16:23:56.814970  9828 net.cpp:157] Memory required for data: 3935059968
I0911 16:23:56.814973  9828 layer_factory.hpp:77] Creating layer ReLU34
I0911 16:23:56.814978  9828 net.cpp:92] Creating Layer ReLU34
I0911 16:23:56.814980  9828 net.cpp:426] ReLU34 <- BatchNorm34
I0911 16:23:56.814983  9828 net.cpp:387] ReLU34 -> BatchNorm34 (in-place)
I0911 16:23:56.815107  9828 net.cpp:142] Setting up ReLU34
I0911 16:23:56.815114  9828 net.cpp:149] Top shape: 4 64 4 4 4 (16384)
I0911 16:23:56.815115  9828 net.cpp:157] Memory required for data: 3935125504
I0911 16:23:56.815119  9828 layer_factory.hpp:77] Creating layer Convolution31
I0911 16:23:56.815125  9828 net.cpp:92] Creating Layer Convolution31
I0911 16:23:56.815129  9828 net.cpp:426] Convolution31 <- BatchNorm34
I0911 16:23:56.815132  9828 net.cpp:400] Convolution31 -> Convolution31
I0911 16:23:56.816552  9828 net.cpp:142] Setting up Convolution31
I0911 16:23:56.816562  9828 net.cpp:149] Top shape: 4 16 4 4 4 (4096)
I0911 16:23:56.816565  9828 net.cpp:157] Memory required for data: 3935141888
I0911 16:23:56.816568  9828 layer_factory.hpp:77] Creating layer Dropout14
I0911 16:23:56.816573  9828 net.cpp:92] Creating Layer Dropout14
I0911 16:23:56.816576  9828 net.cpp:426] Dropout14 <- Convolution31
I0911 16:23:56.816581  9828 net.cpp:400] Dropout14 -> Dropout14
I0911 16:23:56.816612  9828 net.cpp:142] Setting up Dropout14
I0911 16:23:56.816617  9828 net.cpp:149] Top shape: 4 16 4 4 4 (4096)
I0911 16:23:56.816619  9828 net.cpp:157] Memory required for data: 3935158272
I0911 16:23:56.816622  9828 layer_factory.hpp:77] Creating layer Concat_20
I0911 16:23:56.816625  9828 net.cpp:92] Creating Layer Concat_20
I0911 16:23:56.816628  9828 net.cpp:426] Concat_20 <- Concat_19_Concat_19_0_split_1
I0911 16:23:56.816632  9828 net.cpp:426] Concat_20 <- Dropout14
I0911 16:23:56.816635  9828 net.cpp:400] Concat_20 -> Concat_20
I0911 16:23:56.816653  9828 net.cpp:142] Setting up Concat_20
I0911 16:23:56.816658  9828 net.cpp:149] Top shape: 4 92 4 4 4 (23552)
I0911 16:23:56.816659  9828 net.cpp:157] Memory required for data: 3935252480
I0911 16:23:56.816663  9828 layer_factory.hpp:77] Creating layer Concat_20_Concat_20_0_split
I0911 16:23:56.816665  9828 net.cpp:92] Creating Layer Concat_20_Concat_20_0_split
I0911 16:23:56.816668  9828 net.cpp:426] Concat_20_Concat_20_0_split <- Concat_20
I0911 16:23:56.816673  9828 net.cpp:400] Concat_20_Concat_20_0_split -> Concat_20_Concat_20_0_split_0
I0911 16:23:56.816676  9828 net.cpp:400] Concat_20_Concat_20_0_split -> Concat_20_Concat_20_0_split_1
I0911 16:23:56.816704  9828 net.cpp:142] Setting up Concat_20_Concat_20_0_split
I0911 16:23:56.816709  9828 net.cpp:149] Top shape: 4 92 4 4 4 (23552)
I0911 16:23:56.816710  9828 net.cpp:149] Top shape: 4 92 4 4 4 (23552)
I0911 16:23:56.816712  9828 net.cpp:157] Memory required for data: 3935440896
I0911 16:23:56.816715  9828 layer_factory.hpp:77] Creating layer BatchNorm35
I0911 16:23:56.816718  9828 net.cpp:92] Creating Layer BatchNorm35
I0911 16:23:56.816721  9828 net.cpp:426] BatchNorm35 <- Concat_20_Concat_20_0_split_0
I0911 16:23:56.816725  9828 net.cpp:400] BatchNorm35 -> BatchNorm35
I0911 16:23:56.816900  9828 net.cpp:142] Setting up BatchNorm35
I0911 16:23:56.816905  9828 net.cpp:149] Top shape: 4 92 4 4 4 (23552)
I0911 16:23:56.816907  9828 net.cpp:157] Memory required for data: 3935535104
I0911 16:23:56.816912  9828 layer_factory.hpp:77] Creating layer Scale35
I0911 16:23:56.816916  9828 net.cpp:92] Creating Layer Scale35
I0911 16:23:56.816920  9828 net.cpp:426] Scale35 <- BatchNorm35
I0911 16:23:56.816922  9828 net.cpp:387] Scale35 -> BatchNorm35 (in-place)
I0911 16:23:56.816953  9828 layer_factory.hpp:77] Creating layer Scale35
I0911 16:23:56.817044  9828 net.cpp:142] Setting up Scale35
I0911 16:23:56.817049  9828 net.cpp:149] Top shape: 4 92 4 4 4 (23552)
I0911 16:23:56.817057  9828 net.cpp:157] Memory required for data: 3935629312
I0911 16:23:56.817062  9828 layer_factory.hpp:77] Creating layer ReLU35
I0911 16:23:56.817066  9828 net.cpp:92] Creating Layer ReLU35
I0911 16:23:56.817068  9828 net.cpp:426] ReLU35 <- BatchNorm35
I0911 16:23:56.817073  9828 net.cpp:387] ReLU35 -> BatchNorm35 (in-place)
I0911 16:23:56.817201  9828 net.cpp:142] Setting up ReLU35
I0911 16:23:56.817207  9828 net.cpp:149] Top shape: 4 92 4 4 4 (23552)
I0911 16:23:56.817209  9828 net.cpp:157] Memory required for data: 3935723520
I0911 16:23:56.817211  9828 layer_factory.hpp:77] Creating layer Convolution32
I0911 16:23:56.817219  9828 net.cpp:92] Creating Layer Convolution32
I0911 16:23:56.817220  9828 net.cpp:426] Convolution32 <- BatchNorm35
I0911 16:23:56.817225  9828 net.cpp:400] Convolution32 -> Convolution32
I0911 16:23:56.818091  9828 net.cpp:142] Setting up Convolution32
I0911 16:23:56.818099  9828 net.cpp:149] Top shape: 4 64 4 4 4 (16384)
I0911 16:23:56.818101  9828 net.cpp:157] Memory required for data: 3935789056
I0911 16:23:56.818105  9828 layer_factory.hpp:77] Creating layer BatchNorm36
I0911 16:23:56.818111  9828 net.cpp:92] Creating Layer BatchNorm36
I0911 16:23:56.818114  9828 net.cpp:426] BatchNorm36 <- Convolution32
I0911 16:23:56.818120  9828 net.cpp:400] BatchNorm36 -> BatchNorm36
I0911 16:23:56.818289  9828 net.cpp:142] Setting up BatchNorm36
I0911 16:23:56.818292  9828 net.cpp:149] Top shape: 4 64 4 4 4 (16384)
I0911 16:23:56.818295  9828 net.cpp:157] Memory required for data: 3935854592
I0911 16:23:56.818300  9828 layer_factory.hpp:77] Creating layer Scale36
I0911 16:23:56.818305  9828 net.cpp:92] Creating Layer Scale36
I0911 16:23:56.818307  9828 net.cpp:426] Scale36 <- BatchNorm36
I0911 16:23:56.818311  9828 net.cpp:387] Scale36 -> BatchNorm36 (in-place)
I0911 16:23:56.818342  9828 layer_factory.hpp:77] Creating layer Scale36
I0911 16:23:56.818444  9828 net.cpp:142] Setting up Scale36
I0911 16:23:56.818449  9828 net.cpp:149] Top shape: 4 64 4 4 4 (16384)
I0911 16:23:56.818451  9828 net.cpp:157] Memory required for data: 3935920128
I0911 16:23:56.818455  9828 layer_factory.hpp:77] Creating layer ReLU36
I0911 16:23:56.818459  9828 net.cpp:92] Creating Layer ReLU36
I0911 16:23:56.818461  9828 net.cpp:426] ReLU36 <- BatchNorm36
I0911 16:23:56.818465  9828 net.cpp:387] ReLU36 -> BatchNorm36 (in-place)
I0911 16:23:56.818588  9828 net.cpp:142] Setting up ReLU36
I0911 16:23:56.818593  9828 net.cpp:149] Top shape: 4 64 4 4 4 (16384)
I0911 16:23:56.818595  9828 net.cpp:157] Memory required for data: 3935985664
I0911 16:23:56.818598  9828 layer_factory.hpp:77] Creating layer Convolution33
I0911 16:23:56.818603  9828 net.cpp:92] Creating Layer Convolution33
I0911 16:23:56.818606  9828 net.cpp:426] Convolution33 <- BatchNorm36
I0911 16:23:56.818611  9828 net.cpp:400] Convolution33 -> Convolution33
I0911 16:23:56.820786  9828 net.cpp:142] Setting up Convolution33
I0911 16:23:56.820799  9828 net.cpp:149] Top shape: 4 16 4 4 4 (4096)
I0911 16:23:56.820802  9828 net.cpp:157] Memory required for data: 3936002048
I0911 16:23:56.820821  9828 layer_factory.hpp:77] Creating layer Dropout15
I0911 16:23:56.820825  9828 net.cpp:92] Creating Layer Dropout15
I0911 16:23:56.820829  9828 net.cpp:426] Dropout15 <- Convolution33
I0911 16:23:56.820835  9828 net.cpp:400] Dropout15 -> Dropout15
I0911 16:23:56.820868  9828 net.cpp:142] Setting up Dropout15
I0911 16:23:56.820873  9828 net.cpp:149] Top shape: 4 16 4 4 4 (4096)
I0911 16:23:56.820874  9828 net.cpp:157] Memory required for data: 3936018432
I0911 16:23:56.820876  9828 layer_factory.hpp:77] Creating layer Concat_21
I0911 16:23:56.820881  9828 net.cpp:92] Creating Layer Concat_21
I0911 16:23:56.820885  9828 net.cpp:426] Concat_21 <- Concat_20_Concat_20_0_split_1
I0911 16:23:56.820888  9828 net.cpp:426] Concat_21 <- Dropout15
I0911 16:23:56.820893  9828 net.cpp:400] Concat_21 -> Concat_21
I0911 16:23:56.820914  9828 net.cpp:142] Setting up Concat_21
I0911 16:23:56.820919  9828 net.cpp:149] Top shape: 4 108 4 4 4 (27648)
I0911 16:23:56.820924  9828 net.cpp:157] Memory required for data: 3936129024
I0911 16:23:56.820938  9828 layer_factory.hpp:77] Creating layer Concat_21_Concat_21_0_split
I0911 16:23:56.820945  9828 net.cpp:92] Creating Layer Concat_21_Concat_21_0_split
I0911 16:23:56.820950  9828 net.cpp:426] Concat_21_Concat_21_0_split <- Concat_21
I0911 16:23:56.820968  9828 net.cpp:400] Concat_21_Concat_21_0_split -> Concat_21_Concat_21_0_split_0
I0911 16:23:56.820988  9828 net.cpp:400] Concat_21_Concat_21_0_split -> Concat_21_Concat_21_0_split_1
I0911 16:23:56.821022  9828 net.cpp:142] Setting up Concat_21_Concat_21_0_split
I0911 16:23:56.821025  9828 net.cpp:149] Top shape: 4 108 4 4 4 (27648)
I0911 16:23:56.821028  9828 net.cpp:149] Top shape: 4 108 4 4 4 (27648)
I0911 16:23:56.821030  9828 net.cpp:157] Memory required for data: 3936350208
I0911 16:23:56.821033  9828 layer_factory.hpp:77] Creating layer BatchNorm37
I0911 16:23:56.821038  9828 net.cpp:92] Creating Layer BatchNorm37
I0911 16:23:56.821040  9828 net.cpp:426] BatchNorm37 <- Concat_21_Concat_21_0_split_0
I0911 16:23:56.821044  9828 net.cpp:400] BatchNorm37 -> BatchNorm37
I0911 16:23:56.821209  9828 net.cpp:142] Setting up BatchNorm37
I0911 16:23:56.821213  9828 net.cpp:149] Top shape: 4 108 4 4 4 (27648)
I0911 16:23:56.821215  9828 net.cpp:157] Memory required for data: 3936460800
I0911 16:23:56.821221  9828 layer_factory.hpp:77] Creating layer Scale37
I0911 16:23:56.821228  9828 net.cpp:92] Creating Layer Scale37
I0911 16:23:56.821230  9828 net.cpp:426] Scale37 <- BatchNorm37
I0911 16:23:56.821233  9828 net.cpp:387] Scale37 -> BatchNorm37 (in-place)
I0911 16:23:56.821264  9828 layer_factory.hpp:77] Creating layer Scale37
I0911 16:23:56.821357  9828 net.cpp:142] Setting up Scale37
I0911 16:23:56.821362  9828 net.cpp:149] Top shape: 4 108 4 4 4 (27648)
I0911 16:23:56.821364  9828 net.cpp:157] Memory required for data: 3936571392
I0911 16:23:56.821368  9828 layer_factory.hpp:77] Creating layer ReLU37
I0911 16:23:56.821373  9828 net.cpp:92] Creating Layer ReLU37
I0911 16:23:56.821375  9828 net.cpp:426] ReLU37 <- BatchNorm37
I0911 16:23:56.821378  9828 net.cpp:387] ReLU37 -> BatchNorm37 (in-place)
I0911 16:23:56.821789  9828 net.cpp:142] Setting up ReLU37
I0911 16:23:56.821810  9828 net.cpp:149] Top shape: 4 108 4 4 4 (27648)
I0911 16:23:56.821825  9828 net.cpp:157] Memory required for data: 3936681984
I0911 16:23:56.821828  9828 layer_factory.hpp:77] Creating layer Convolution34
I0911 16:23:56.821835  9828 net.cpp:92] Creating Layer Convolution34
I0911 16:23:56.821838  9828 net.cpp:426] Convolution34 <- BatchNorm37
I0911 16:23:56.821843  9828 net.cpp:400] Convolution34 -> Convolution34
I0911 16:23:56.822763  9828 net.cpp:142] Setting up Convolution34
I0911 16:23:56.822773  9828 net.cpp:149] Top shape: 4 64 4 4 4 (16384)
I0911 16:23:56.822775  9828 net.cpp:157] Memory required for data: 3936747520
I0911 16:23:56.822780  9828 layer_factory.hpp:77] Creating layer BatchNorm38
I0911 16:23:56.822785  9828 net.cpp:92] Creating Layer BatchNorm38
I0911 16:23:56.822789  9828 net.cpp:426] BatchNorm38 <- Convolution34
I0911 16:23:56.822794  9828 net.cpp:400] BatchNorm38 -> BatchNorm38
I0911 16:23:56.822994  9828 net.cpp:142] Setting up BatchNorm38
I0911 16:23:56.822999  9828 net.cpp:149] Top shape: 4 64 4 4 4 (16384)
I0911 16:23:56.823001  9828 net.cpp:157] Memory required for data: 3936813056
I0911 16:23:56.823006  9828 layer_factory.hpp:77] Creating layer Scale38
I0911 16:23:56.823011  9828 net.cpp:92] Creating Layer Scale38
I0911 16:23:56.823014  9828 net.cpp:426] Scale38 <- BatchNorm38
I0911 16:23:56.823017  9828 net.cpp:387] Scale38 -> BatchNorm38 (in-place)
I0911 16:23:56.823061  9828 layer_factory.hpp:77] Creating layer Scale38
I0911 16:23:56.823149  9828 net.cpp:142] Setting up Scale38
I0911 16:23:56.823153  9828 net.cpp:149] Top shape: 4 64 4 4 4 (16384)
I0911 16:23:56.823155  9828 net.cpp:157] Memory required for data: 3936878592
I0911 16:23:56.823159  9828 layer_factory.hpp:77] Creating layer ReLU38
I0911 16:23:56.823163  9828 net.cpp:92] Creating Layer ReLU38
I0911 16:23:56.823165  9828 net.cpp:426] ReLU38 <- BatchNorm38
I0911 16:23:56.823180  9828 net.cpp:387] ReLU38 -> BatchNorm38 (in-place)
I0911 16:23:56.823339  9828 net.cpp:142] Setting up ReLU38
I0911 16:23:56.823345  9828 net.cpp:149] Top shape: 4 64 4 4 4 (16384)
I0911 16:23:56.823348  9828 net.cpp:157] Memory required for data: 3936944128
I0911 16:23:56.823350  9828 layer_factory.hpp:77] Creating layer Convolution35
I0911 16:23:56.823357  9828 net.cpp:92] Creating Layer Convolution35
I0911 16:23:56.823360  9828 net.cpp:426] Convolution35 <- BatchNorm38
I0911 16:23:56.823364  9828 net.cpp:400] Convolution35 -> Convolution35
I0911 16:23:56.824843  9828 net.cpp:142] Setting up Convolution35
I0911 16:23:56.824856  9828 net.cpp:149] Top shape: 4 16 4 4 4 (4096)
I0911 16:23:56.824858  9828 net.cpp:157] Memory required for data: 3936960512
I0911 16:23:56.824862  9828 layer_factory.hpp:77] Creating layer Dropout16
I0911 16:23:56.824868  9828 net.cpp:92] Creating Layer Dropout16
I0911 16:23:56.824872  9828 net.cpp:426] Dropout16 <- Convolution35
I0911 16:23:56.824877  9828 net.cpp:400] Dropout16 -> Dropout16
I0911 16:23:56.824909  9828 net.cpp:142] Setting up Dropout16
I0911 16:23:56.824913  9828 net.cpp:149] Top shape: 4 16 4 4 4 (4096)
I0911 16:23:56.824915  9828 net.cpp:157] Memory required for data: 3936976896
I0911 16:23:56.824918  9828 layer_factory.hpp:77] Creating layer Concat_22
I0911 16:23:56.824921  9828 net.cpp:92] Creating Layer Concat_22
I0911 16:23:56.824924  9828 net.cpp:426] Concat_22 <- Concat_21_Concat_21_0_split_1
I0911 16:23:56.824928  9828 net.cpp:426] Concat_22 <- Dropout16
I0911 16:23:56.824932  9828 net.cpp:400] Concat_22 -> Concat_22
I0911 16:23:56.824949  9828 net.cpp:142] Setting up Concat_22
I0911 16:23:56.824955  9828 net.cpp:149] Top shape: 4 124 4 4 4 (31744)
I0911 16:23:56.824957  9828 net.cpp:157] Memory required for data: 3937103872
I0911 16:23:56.824959  9828 layer_factory.hpp:77] Creating layer Deconvolution_20
I0911 16:23:56.824965  9828 net.cpp:92] Creating Layer Deconvolution_20
I0911 16:23:56.824966  9828 net.cpp:426] Deconvolution_20 <- Concat_22
I0911 16:23:56.824971  9828 net.cpp:400] Deconvolution_20 -> Deconvolution_20
I0911 16:23:56.859552  9828 net.cpp:142] Setting up Deconvolution_20
I0911 16:23:56.859572  9828 net.cpp:149] Top shape: 4 4 64 64 64 (4194304)
I0911 16:23:56.859575  9828 net.cpp:157] Memory required for data: 3953881088
I0911 16:23:56.859582  9828 layer_factory.hpp:77] Creating layer Concat1
I0911 16:23:56.859589  9828 net.cpp:92] Creating Layer Concat1
I0911 16:23:56.859593  9828 net.cpp:426] Concat1 <- conv1c_conv1c_0_split_1
I0911 16:23:56.859598  9828 net.cpp:426] Concat1 <- Deconvolution_5
I0911 16:23:56.859604  9828 net.cpp:426] Concat1 <- Deconvolution_10
I0911 16:23:56.859609  9828 net.cpp:426] Concat1 <- Deconvolution_15
I0911 16:23:56.859613  9828 net.cpp:426] Concat1 <- Deconvolution_20
I0911 16:23:56.859622  9828 net.cpp:400] Concat1 -> Concat1
I0911 16:23:56.859673  9828 net.cpp:142] Setting up Concat1
I0911 16:23:56.859681  9828 net.cpp:149] Top shape: 4 48 64 64 64 (50331648)
I0911 16:23:56.859688  9828 net.cpp:157] Memory required for data: 4155207680
I0911 16:23:56.859693  9828 layer_factory.hpp:77] Creating layer bnorm_concat
I0911 16:23:56.859700  9828 net.cpp:92] Creating Layer bnorm_concat
I0911 16:23:56.859706  9828 net.cpp:426] bnorm_concat <- Concat1
I0911 16:23:56.859715  9828 net.cpp:400] bnorm_concat -> bnorm_concat
I0911 16:23:56.860517  9828 net.cpp:142] Setting up bnorm_concat
I0911 16:23:56.860527  9828 net.cpp:149] Top shape: 4 48 64 64 64 (50331648)
I0911 16:23:56.860532  9828 net.cpp:157] Memory required for data: 4356534272
I0911 16:23:56.860541  9828 layer_factory.hpp:77] Creating layer scale_concat
I0911 16:23:56.860551  9828 net.cpp:92] Creating Layer scale_concat
I0911 16:23:56.860558  9828 net.cpp:426] scale_concat <- bnorm_concat
I0911 16:23:56.860565  9828 net.cpp:387] scale_concat -> bnorm_concat (in-place)
I0911 16:23:56.860612  9828 layer_factory.hpp:77] Creating layer scale_concat
I0911 16:23:56.861448  9828 net.cpp:142] Setting up scale_concat
I0911 16:23:56.861469  9828 net.cpp:149] Top shape: 4 48 64 64 64 (50331648)
I0911 16:23:56.861472  9828 net.cpp:157] Memory required for data: 4557860864
I0911 16:23:56.861505  9828 layer_factory.hpp:77] Creating layer relu_concat
I0911 16:23:56.861512  9828 net.cpp:92] Creating Layer relu_concat
I0911 16:23:56.861518  9828 net.cpp:426] relu_concat <- bnorm_concat
I0911 16:23:56.861526  9828 net.cpp:387] relu_concat -> bnorm_concat (in-place)
I0911 16:23:56.861897  9828 net.cpp:142] Setting up relu_concat
I0911 16:23:56.861907  9828 net.cpp:149] Top shape: 4 48 64 64 64 (50331648)
I0911 16:23:56.861912  9828 net.cpp:157] Memory required for data: 4759187456
I0911 16:23:56.861917  9828 layer_factory.hpp:77] Creating layer Convolution36
I0911 16:23:56.861940  9828 net.cpp:92] Creating Layer Convolution36
I0911 16:23:56.861945  9828 net.cpp:426] Convolution36 <- bnorm_concat
I0911 16:23:56.861953  9828 net.cpp:400] Convolution36 -> Convolution36
I0911 16:23:56.862898  9828 net.cpp:142] Setting up Convolution36
I0911 16:23:56.862910  9828 net.cpp:149] Top shape: 4 4 64 64 64 (4194304)
I0911 16:23:56.862913  9828 net.cpp:157] Memory required for data: 4775964672
I0911 16:23:56.862922  9828 layer_factory.hpp:77] Creating layer loss
I0911 16:23:56.862931  9828 net.cpp:92] Creating Layer loss
I0911 16:23:56.862936  9828 net.cpp:426] loss <- Convolution36
I0911 16:23:56.862943  9828 net.cpp:426] loss <- label
I0911 16:23:56.862952  9828 net.cpp:400] loss -> loss
…
